assets/models/cobrastretch.tflite (tflite, 28600 bytes, 6 tensors)

sequential/dense_2/MatMul f4 [2, 64]
0	0x3ed3681c	0.41290367
1	0x3f45f8c7	0.7733273
2	0xbe9992af	-0.29994723
3	0xbe545770	-0.2073648
4	0x3e0a779c	0.1352219
5	0xbe808c5e	-0.25107092
6	0xbeb4ab3b	-0.35286888
7	0x3f01b12a	0.50660956
8	0x3e814ea5	0.25255314
9	0xbef1c5a4	-0.472211
10	0x3f11d761	0.5696927
11	0x3f1b689e	0.6070651
12	0x3f0d24da	0.55134356
13	0xbe144d2f	-0.14482568
14	0xbf08dc80	-0.53461456
15	0x3ea5fe45	0.32420555
16	0xbf10e9e5	-0.56606895
17	0x3d07f437	0.033191886
18	0x3f1aed42	0.60518277
19	0xbef21a6d	-0.47285786
20	0x3f10f423	0.56622523
21	0xbeaa082c	-0.3320936
22	0xbdd0785c	-0.10179207
23	0x3e6cef74	0.23138219
24	0xbec70cd4	-0.38876975
25	0x3efca66e	0.49345726
26	0xbe77a22f	-0.24182962
27	0xbeba3b26	-0.36373252
28	0xbe99e006	-0.3005373
29	0xbec3cb3a	-0.38240987
30	0x3e99d660	0.30046368
31	0x3ee50a30	0.44734335
32	0xbe8aba1e	-0.2709512
33	0x3efe3ed9	0.49657324
34	0x3ee82fe9	0.45349053
35	0xbee2d5e5	-0.44303814
36	0x3ef712b5	0.4825646
37	0xbec030f8	-0.3753736
38	0x3f2fd9ba	0.686916
39	0x3ed25b4b	0.41085276
40	0xbebf699b	-0.37385258
41	0xbedc4dd1	-0.4302812
42	0x3d0d8447	0.034549978
43	0x3f10a631	0.5650359
44	0xbe772d57	-0.2413839
45	0xbeef7891	-0.46771672
46	0xbefaf1d8	-0.49012637
47	0xbea80802	-0.3281861
48	0x3f295290	0.66141605
49	0x3e7a4090	0.24438691
50	0x3f075023	0.52856654
51	0x3dbc7396	0.09201734
52	0xbebc52df	-0.36781976
53	0xbeaa0833	-0.3320938
54	0x3e0e88e2	0.13919404
55	0xbe6dcb08	-0.23221982
56	0xbe6cc457	-0.23121773
57	0xbe132a8a	-0.14371696
58	0xbef440c6	-0.47705668
59	0xbe9b9165	-0.30384365
60	0xbe8b15e7	-0.27165148
61	0x3edcb7ae	0.43108886
62	0xbf040ca4	-0.5158179
63	0x3ea58f4b	0.32335886
64	0xbf0666fc	-0.5250089
65	0xbf0a22fb	-0.53959626
66	0x3ebb528d	0.3658642
67	0x3ec22d62	0.3792525
68	0xbf0dfbba	-0.5546223
69	0x3ed1b4c8	0.40958238
70	0xbc903ebc	-0.01760804
71	0xbe4cd236	-0.20002064
72	0xbec73369	-0.3890641
73	0x3dc90e0b	0.098171316
74	0xbf0163c6	-0.5054287
75	0xbdbd463b	-0.09241911
76	0xbef9e710	-0.488091
77	0x3ec22a8d	0.3792309
78	0x3e00ea8c	0.12589473
79	0xbefcd6a5	-0.4938251
80	0x3ee68c6d	0.4502901
81	0x3c54a464	0.012978647
82	0xbf354666	-0.70810544
83	0x3dad8ef5	0.084745325
84	0xbefd4ee2	-0.49474245
85	0x3ec2ad2e	0.3802275
86	0xbe6b67f5	-0.22988875
87	0xbe955660	-0.2916746
88	0x3ef235fe	0.47306818
89	0xbe0a5efe	-0.13512799
90	0x3e6e903f	0.23297213
91	0x3f17ccf6	0.5929712
92	0x3e80d152	0.251597
93	0x3edfa357	0.43679306
94	0xbed65219	-0.4185951
95	0xbe1dc071	-0.15405442
96	0x3ef76081	0.48315814
97	0xbe0699e5	-0.13144644
98	0xbde85cbc	-0.11345813
99	0x3f06b52b	0.5262019
100	0xbe850699	-0.25981596
101	0x3ed56546	0.41678828
102	0xbe9df506	-0.30851
103	0xbdcf1e74	-0.1011323
104	0x3e9ac42b	0.3022779
105	0x3e374b9a	0.17899933
106	0x3e9393e0	0.28823757
107	0xbe516c2a	-0.20451418
108	0x3dd07458	0.10178441
109	0x3e9aee26	0.30259818
110	0x3e4cb457	0.19990669
111	0x3ef6518d	0.48109093
112	0xbef3aa8b	-0.4759105
113	0xbf078fd4	-0.5295384
114	0xbe25dd0f	-0.16197608
115	0xbf0f0597	-0.55867904
116	0x3ec46ca6	0.38364142
117	0xbd0a545f	-0.03377187
118	0xbece62ba	-0.40309697
119	0xbd553046	-0.05204799
120	0x3ee20680	0.44145584
121	0x3e43599c	0.19077152
122	0x3ec7e385	0.3904077
123	0x3efb4cdb	0.49082074
124	0x3ef5d8bb	0.48016915
125	0xbe5acabf	-0.21366404
126	0x3f030770	0.51183224
127	0xbec927ab	-0.39288077

sequential/dense_1/BiasAdd/ReadVariableOp f4 [64]
0	0x3e289b21	0.16465427
1	0x3e25e6cb	0.16201322
2	0x3c5717e6	0.013128256
3	0x3cc4d1b4	0.024025775
4	0x3e0cb988	0.1374265
5	0x3d2c5260	0.042070746
6	0x3c8685f7	0.016421301
7	0x3e2fba77	0.17160974
8	0x3e19eb60	0.15031195
9	0x3bf32e42	0.007421286
10	0x3e1897a9	0.14901604
11	0x3e2d0000	0.16894531
12	0x3de98926	0.11403112
13	0x3d0d2a19	0.034463976
14	0x3c97aaca	0.018514056
15	0x3dd1e165	0.10248069
16	0x3c8a678d	0.01689508
17	0x3da16c95	0.078820385
18	0x3e27ca03	0.16385655
19	0x3c4ae2a2	0.012383135
20	0x3e1e4696	0.15456614
21	0x3d480b3d	0.048838843
22	0xbd39e2a2	-0.04538215
23	0x3e27ed10	0.16399026
24	0x3d7a8a5f	0.061167117
25	0x3e4b4650	0.19851041
26	0x3ce7b5b3	0.028284883
27	0x39e6c903	0.00044018784
28	0x3d4b6f5b	0.049666744
29	0x3cd6834c	0.026185654
30	0x3e27a54c	0.1637165
31	0x3e184f73	0.14874057
32	0x3d1ddf57	0.03854307
33	0x3e03b43a	0.1286172
34	0x3e12d813	0.14340238
35	0x3d5b19f3	0.053491544
36	0x3e31fa8f	0.17380737
37	0x3c18788d	0.009306085
38	0x3e265a95	0.16245492
39	0x3e0ad3a4	0.13557297
40	0x3cb0a025	0.021560738
41	0x3c8dfa31	0.017331215
42	0x3ca6568b	0.020304939
43	0x3e29e4ff	0.16591261
44	0xbd48eeb2	-0.049055763
45	0x3d0819d3	0.033227753
46	0x3cdea725	0.02717931
47	0x3c472397	0.012154481
48	0x3e252392	0.1612685
49	0x3e08fbac	0.13377255
50	0x3e3d5401	0.18489076
51	0x3e2e10ae	0.1699855
52	0x3d08a3c4	0.033359304
53	0x3ae0b437	0.0017143552
54	0x3e132483	0.14369397
55	0x3c82a923	0.015949791
56	0x3c6bd680	0.0143944025
57	0x3d707fc3	0.058715593
58	0x3d5cc91a	0.053902723
59	0x3b6023bf	0.0034200994
60	0x3c867ff6	0.016418438
61	0x3e14cd49	0.14531435
62	0x3c0c5d7e	0.008567212
63	0x3e347dc6	0.17626104

sequential/dense_2/BiasAdd/ReadVariableOp f4 [2]
0	0x3d343ed1	0.04400522
1	0xbd343ed0	-0.044005215

sequential/dense/BiasAdd/ReadVariableOp f4 [128]
0	0xbb1f00ad	-0.0024261877
1	0xbc90064f	-0.017581133
2	0xbc013bd0	-0.007887796
3	0xbcba0ada	-0.022710253
4	0xbd1e88dc	-0.038704738
5	0x00000000	0.0
6	0xbc0326fd	-0.008004901
7	0xbbb127df	-0.0054063643
8	0x00000000	0.0
9	0x3cc3cb39	0.023900615
10	0x00000000	0.0
11	0x00000000	0.0
12	0xbbc4c1e4	-0.006004559
13	0x00000000	0.0
14	0x00000000	0.0
15	0xbc0e79f8	-0.008696072
16	0xbd8170f3	-0.063203715
17	0x00000000	0.0
18	0x00000000	0.0
19	0x3ce72a3a	0.028218377
20	0x00000000	0.0
21	0xbbe2460c	-0.006905323
22	0x00000000	0.0
23	0xbd5e293a	-0.054238535
24	0x00000000	0.0
25	0x3b3f9557	0.00292333
26	0xbc1c729d	-0.00954881
27	0x00000000	0.0
28	0x00000000	0.0
29	0x00000000	0.0
30	0xbd2be822	-0.041969426
31	0x00000000	0.0
32	0x00000000	0.0
33	0x00000000	0.0
34	0x3d0a12e0	0.033709407
35	0xbcf7c73c	-0.03024637
36	0x3c4dfc67	0.012572384
37	0xbce8b5ce	-0.028407004
38	0xbd3c3916	-0.04595288
39	0x00000000	0.0
40	0xbbea793c	-0.0071555655
41	0x00000000	0.0
42	0x00000000	0.0
43	0xbd45766a	-0.04820863
44	0x3c48ae5e	0.012248604
45	0xbbf53562	-0.0074831704
46	0xbc2b0bcd	-0.010439825
47	0xbbbbadd5	-0.0057275095
48	0xbc429243	-0.011875692
49	0x3c9c21f2	0.019059155
50	0x3cbec1aa	0.023285706
51	0x3c0999fb	0.008398528
52	0xbc77c24a	-0.015122006
53	0xbd5ece10	-0.054395735
54	0x3cc47df4	0.02398584
55	0xbc353979	-0.011061066
56	0x00000000	0.0
57	0x00000000	0.0
58	0x00000000	0.0
59	0xbd28a1d8	-0.04116997
60	0xbbc4be13	-0.006004104
61	0xbd4b8449	-0.049686704
62	0xbb72c701	-0.0037044885
63	0x00000000	0.0
64	0xbd54da14	-0.051965788
65	0xbbbbaa83	-0.0057271137
66	0x3c2412a5	0.010014211
67	0xba9b8332	-0.0011864661
68	0x3ca085e0	0.019595087
69	0x3bac4b3a	0.005257991
70	0xbbe9262b	-0.0071151457
71	0x3ac59572	0.0015074445
72	0xbb78c40f	-0.0037958657
73	0x00000000	0.0
74	0x00000000	0.0
75	0xbd28590c	-0.041100547
76	0x00000000	0.0
77	0x00000000	0.0
78	0x3c7e1297	0.015507362
79	0xba36f8bc	-0.00069798133
80	0x00000000	0.0
81	0xbd2181b1	-0.039430324
82	0x00000000	0.0
83	0x00000000	0.0
84	0x00000000	0.0
85	0xbd4b17f1	-0.04958338
86	0x3cf9bed7	0.030486507
87	0x00000000	0.0
88	0x3d18f8e7	0.037346747
89	0xbb0baf7e	-0.0021314318
90	0x00000000	0.0
91	0xbd31b103	-0.043381702
92	0x00000000	0.0
93	0x00000000	0.0
94	0x00000000	0.0
95	0xbcf6b795	-0.030116836
96	0xbcf25756	-0.02958266
97	0xbc303b16	-0.010756275
98	0xbcdf33e8	-0.02724643
99	0xbbfdb6e2	-0.0077427486
100	0x00000000	0.0
101	0x3adabce7	0.0016688377
102	0x00000000	0.0
103	0x00000000	0.0
104	0xbad724d3	-0.0016414173
105	0x00000000	0.0
106	0x00000000	0.0
107	0x00000000	0.0
108	0x00000000	0.0
109	0x00000000	0.0
110	0xbbbf5225	-0.00583865
111	0x00000000	0.0
112	0xbd655669	-0.05599061
113	0x00000000	0.0
114	0x00000000	0.0
115	0x00000000	0.0
116	0xbce3d8a6	-0.027813267
117	0x00000000	0.0
118	0xbd19c302	-0.03753949
119	0x00000000	0.0
120	0x3c2e1957	0.010626159
121	0xbcb58c21	-0.022161545
122	0xbd30f127	-0.04319873
123	0xbbc488d0	-0.0059977546
124	0xbd359f3f	-0.044341322
125	0x00000000	0.0
126	0xbc07ddab	-0.008292596
127	0x00000000	0.0

sequential/dense/MatMul i1 [128, 132] scale=0.0027049193 zero_point=0
0	0x21	0.08926234
1	0x1e	0.08114758
2	0x29	0.11090169
3	0x02	0.0054098386
4	0xe8	-0.06491806
5	0xcf	-0.13254105
6	0xf5	-0.029754113
7	0x09	0.024344273
8	0xd9	-0.105491854
9	0x19	0.06762298
10	0xe5	-0.07303282
11	0xd5	-0.11631153
12	0xc9	-0.14877056
13	0x06	0.016229516
14	0xee	-0.048688546
15	0x33	0.13795088
16	0x2a	0.11360661
17	0xf5	-0.029754113
18	0x25	0.10008202
19	0x19	0.06762298
20	0xe4	-0.075737745
21	0x21	0.08926234
22	0x31	0.13254105
23	0xd9	-0.105491854
24	0xcf	-0.13254105
25	0xe3	-0.07844266
26	0xea	-0.059508227
27	0xdc	-0.09737709
28	0xcc	-0.1406558
29	0xea	-0.059508227
30	0xfc	-0.010819677
31	0xc9	-0.14877056
32	0x0a	0.027049193
33	0xfb	-0.013524597
34	0xdd	-0.09467217
35	0x25	0.10008202
36	0x1b	0.07303282
37	0xe5	-0.07303282
38	0x22	0.091967255
39	0x02	0.0054098386
40	0x33	0.13795088
41	0x2d	0.12172137
42	0x1e	0.08114758
43	0x35	0.14336072
44	0xfe	-0.0054098386
45	0x32	0.13524596
46	0xf3	-0.03516395
47	0x33	0.13795088
48	0x29	0.11090169
49	0xd6	-0.11360661
50	0xce	-0.13524596
51	0xd0	-0.12983613
52	0xd3	-0.12172137
53	0xdd	-0.09467217
54	0xec	-0.054098386
55	0x26	0.102786936
56	0x19	0.06762298
57	0xe5	-0.07303282
58	0xe1	-0.0838525
59	0xdb	-0.10008202
60	0xc9	-0.14877056
61	0x1f	0.0838525
62	0xde	-0.091967255
63	0xee	-0.048688546
64	0xea	-0.059508227
65	0xe3	-0.07844266
66	0xd1	-0.12713121
67	0x09	0.024344273
68	0x07	0.018934436
69	0xdc	-0.09737709
70	0x35	0.14336072
71	0x31	0.13254105
72	0xee	-0.048688546
73	0xcc	-0.1406558
74	0x00	0.0
75	0x14	0.054098386
76	0x33	0.13795088
77	0x2b	0.11631153
78	0xf9	-0.018934436
79	0x28	0.10819677
80	0xd5	-0.11631153
81	0x0d	0.03516395
82	0xe2	-0.08114758
83	0x01	0.0027049193
84	0x16	0.059508227
85	0xc9	-0.14877056
86	0x05	0.013524597
87	0xe9	-0.062213145
88	0xeb	-0.056803305
89	0xff	-0.0027049193
90	0xf6	-0.027049193
91	0x0e	0.037868872
92	0xf5	-0.029754113
93	0xd4	-0.11901645
94	0x33	0.13795088
95	0xf2	-0.037868872
96	0x33	0.13795088
97	0x24	0.09737709
98	0xe1	-0.0838525
99	0xe7	-0.06762298
100	0xc7	-0.15418041
101	0xf9	-0.018934436
102	0xd0	-0.12983613
103	0x21	0.08926234
104	0xf5	-0.029754113
105	0xe3	-0.07844266
106	0xe8	-0.06491806
107	0xdc	-0.09737709
108	0xd5	-0.11631153
109	0xea	-0.059508227
110	0xef	-0.045983627
111	0x0e	0.037868872
112	0x1b	0.07303282
113	0x1c	0.075737745
114	0xde	-0.091967255
115	0xe5	-0.07303282
116	0xcc	-0.1406558
117	0xe0	-0.08655742
118	0xdf	-0.08926234
119	0x23	0.09467217
120	0x21	0.08926234
121	0x35	0.14336072
122	0x01	0.0027049193
123	0xd4	-0.11901645
124	0x33	0.13795088
125	0x14	0.054098386
126	0x06	0.016229516
127	0x26	0.102786936
128	0x0b	0.029754113
129	0xf0	-0.04327871
130	0xf2	-0.037868872
131	0x2e	0.12442629
132	0x20	0.08655742
133	0xf7	-0.024344273
134	0x38	0.15147549
135	0xf2	-0.037868872
136	0x15	0.056803305
137	0xdf	-0.08926234
138	0x01	0.0027049193
139	0xf3	-0.03516395
140	0x16	0.059508227
141	0xdb	-0.10008202
142	0x1d	0.07844266
143	0x0e	0.037868872
144	0x0e	0.037868872
145	0xe0	-0.08655742
146	0x01	0.0027049193
147	0xf3	-0.03516395
148	0xd2	-0.12442629
149	0xf0	-0.04327871
150	0x08	0.021639355
151	0x28	0.10819677
152	0xd4	-0.11901645
153	0xf8	-0.021639355
154	0x15	0.056803305
155	0x2b	0.11631153
156	0x10	0.04327871
157	0x03	0.008114758
158	0x0b	0.029754113
159	0x1d	0.07844266
160	0xfe	-0.0054098386
161	0x25	0.10008202
162	0x01	0.0027049193
163	0xc8	-0.15147549
164	0x29	0.11090169
165	0xcd	-0.13795088
166	0x06	0.016229516
167	0x19	0.06762298
168	0xfc	-0.010819677
169	0x0b	0.029754113
170	0xf0	-0.04327871
171	0x07	0.018934436
172	0xd6	-0.11360661
173	0x25	0.10008202
174	0x1d	0.07844266
175	0xfb	-0.013524597
176	0x23	0.09467217
177	0x28	0.10819677
178	0x05	0.013524597
179	0xc8	-0.15147549
180	0x27	0.105491854
181	0x0b	0.029754113
182	0x2a	0.11360661
183	0x22	0.091967255
184	0xe4	-0.075737745
185	0xc3	-0.16500008
186	0xfb	-0.013524597
187	0xf6	-0.027049193
188	0x01	0.0027049193
189	0xc7	-0.15418041
190	0xeb	-0.056803305
191	0xe5	-0.07303282
192	0xec	-0.054098386
193	0xd4	-0.11901645
194	0x2e	0.12442629
195	0x1d	0.07844266
196	0x25	0.10008202
197	0xce	-0.13524596
198	0x17	0.062213145
199	0x36	0.14606564
200	0xdd	-0.09467217
201	0xe6	-0.0703279
202	0xec	-0.054098386
203	0xe2	-0.08114758
204	0xff	-0.0027049193
205	0xc6	-0.15688533
206	0x16	0.059508227
207	0x2e	0.12442629
208	0xce	-0.13524596
209	0x11	0.045983627
210	0x10	0.04327871
211	0xf4	-0.03245903
212	0xe7	-0.06762298
213	0xe8	-0.06491806
214	0xde	-0.091967255
215	0x0d	0.03516395
216	0xfc	-0.010819677
217	0x26	0.102786936
218	0xdb	-0.10008202
219	0x0b	0.029754113
220	0x18	0.06491806
221	0x2b	0.11631153
222	0x05	0.013524597
223	0x39	0.15418041
224	0xd4	-0.11901645
225	0x2a	0.11360661
226	0xea	-0.059508227
227	0xe0	-0.08655742
228	0xd6	-0.11360661
229	0xe3	-0.07844266
230	0x0b	0.029754113
231	0xca	-0.14606564
232	0x24	0.09737709
233	0x1c	0.075737745
234	0x2e	0.12442629
235	0x0d	0.03516395
236	0x2e	0.12442629
237	0x32	0.13524596
238	0xc9	-0.14877056
239	0x13	0.051393468
240	0xd4	-0.11901645
241	0xda	-0.102786936
242	0x34	0.1406558
243	0x11	0.045983627
244	0x21	0.08926234
245	0xd5	-0.11631153
246	0x26	0.102786936
247	0x20	0.08655742
248	0x0e	0.037868872
249	0x27	0.105491854
250	0x23	0.09467217
251	0x0e	0.037868872
252	0xf4	-0.03245903
253	0xe3	-0.07844266
254	0xe0	-0.08655742
255	0xf1	-0.04057379

sequential/dense_1/MatMul i1 [64, 128] scale=0.0048711603 zero_point=0
0	0xf2	-0.068196245
1	0x0d	0.063325085
2	0x16	0.10716552
3	0xfa	-0.029226962
4	0xf4	-0.058453925
5	0x14	0.0974232
6	0xe5	-0.13152133
7	0xe8	-0.11690785
8	0x11	0.082809724
9	0x25	0.18023293
10	0x17	0.11203668
11	0x0a	0.0487116
12	0x18	0.11690785
13	0xf2	-0.068196245
14	0x02	0.0097423205
15	0xdf	-0.16074829
16	0x04	0.019484641
17	0x11	0.082809724
18	0xfb	-0.0243558
19	0x2c	0.21433105
20	0xfe	-0.0097423205
21	0xe6	-0.12665017
22	0x0c	0.058453925
23	0xda	-0.18510409
24	0x16	0.10716552
25	0x1e	0.14613481
26	0x04	0.019484641
27	0xe1	-0.15100597
28	0xe3	-0.14126365
29	0x16	0.10716552
30	0x07	0.034098122
31	0x19	0.12177901
32	0xfd	-0.014613481
33	0x0c	0.058453925
34	0x33	0.24842918
35	0x0c	0.058453925
36	0x24	0.17536177
37	0xf7	-0.04384044
38	0xb6	-0.36046585
39	0xdd	-0.17049061
40	0xf8	-0.038969282
41	0x16	0.10716552
42	0xe4	-0.13639249
43	0x04	0.019484641
44	0x39	0.27765614
45	0xfd	-0.014613481
46	0x05	0.0243558
47	0xe6	-0.12665017
48	0x0c	0.058453925
49	0x25	0.18023293
50	0x2f	0.22894453
51	0xf7	-0.04384044
52	0xea	-0.10716552
53	0xb1	-0.38482165
54	0x38	0.27278498
55	0xe1	-0.15100597
56	0xe6	-0.12665017
57	0x22	0.16561945
58	0x22	0.16561945
59	0xc9	-0.26791382
60	0xeb	-0.10229436
61	0xea	-0.10716552
62	0xe6	-0.12665017
63	0x21	0.16074829
64	0xd0	-0.2338157
65	0xf7	-0.04384044
66	0x23	0.17049061
67	0x16	0.10716552
68	0x2f	0.22894453
69	0x0c	0.058453925
70	0xf4	-0.058453925
71	0x2b	0.20945989
72	0xe3	-0.14126365
73	0x23	0.17049061
74	0x01	0.0048711603
75	0xf2	-0.068196245
76	0x18	0.11690785
77	0x1d	0.14126365
78	0x15	0.10229436
79	0xfd	-0.014613481
80	0xfd	-0.014613481
81	0xcf	-0.23868686
82	0x02	0.0097423205
83	0xeb	-0.10229436
84	0xdd	-0.17049061
85	0xff	-0.0048711603
86	0x24	0.17536177
87	0x0f	0.073067404
88	0x2d	0.2192022
89	0x0f	0.073067404
90	0x0e	0.068196245
91	0xd1	-0.22894453
92	0x07	0.034098122
93	0x23	0.17049061
94	0x00	0.0
95	0xf8	-0.038969282
96	0x1f	0.15100597
97	0x21	0.16074829
98	0x0c	0.058453925
99	0xfe	-0.0097423205
100	0x21	0.16074829
101	0xe1	-0.15100597
102	0xf3	-0.063325085
103	0xf4	-0.058453925
104	0xf4	-0.058453925
105	0xe9	-0.11203668
106	0xdc	-0.17536177
107	0xdd	-0.17049061
108	0x0b	0.05358276
109	0x12	0.08768088
110	0x08	0.038969282
111	0xfe	-0.0097423205
112	0xb0	-0.3896928
113	0xef	-0.082809724
114	0x0a	0.0487116
115	0xec	-0.0974232
116	0xff	-0.0048711603
117	0xe6	-0.12665017
118	0xe2	-0.14613481
119	0xfb	-0.0243558
120	0x2c	0.21433105
121	0x08	0.038969282
122	0xf6	-0.0487116
123	0xf3	-0.063325085
124	0xd5	-0.20945989
125	0xdd	-0.17049061
126	0x1d	0.14126365
127	0xf5	-0.05358276
128	0xdd	-0.17049061
129	0xe1	-0.15100597
130	0x19	0.12177901
131	0xe9	-0.11203668
132	0xc9	-0.26791382
133	0x12	0.08768088
134	0x03	0.014613481
135	0xde	-0.16561945
136	0x02	0.0097423205
137	0x01	0.0048711603
138	0x00	0.0
139	0x0c	0.058453925
140	0x16	0.10716552
141	0x04	0.019484641
142	0xe5	-0.13152133
143	0x22	0.16561945
144	0xe3	-0.14126365
145	0xe5	-0.13152133
146	0x08	0.038969282
147	0x58	0.4286621
148	0x1e	0.14613481
149	0x05	0.0243558
150	0x04	0.019484641
151	0xdd	-0.17049061
152	0x0e	0.068196245
153	0xf2	-0.068196245
154	0xf1	-0.073067404
155	0x15	0.10229436
156	0x17	0.11203668
157	0x0b	0.05358276
158	0xe5	-0.13152133
159	0xe5	-0.13152133
160	0xe9	-0.11203668
161	0xff	-0.0048711603
162	0x30	0.2338157
163	0xdd	-0.17049061
164	0xf2	-0.068196245
165	0x00	0.0
166	0xb0	-0.3896928
167	0xed	-0.09255204
168	0xe9	-0.11203668
169	0xe7	-0.12177901
170	0xea	-0.10716552
171	0x05	0.0243558
172	0x0a	0.0487116
173	0xfb	-0.0243558
174	0xe3	-0.14126365
175	0x0e	0.068196245
176	0xfa	-0.029226962
177	0x1e	0.14613481
178	0x25	0.18023293
179	0xe3	-0.14126365
180	0x13	0.09255204
181	0xbf	-0.31662542
182	0x0e	0.068196245
183	0x05	0.0243558
184	0xf1	-0.073067404
185	0x19	0.12177901
186	0x19	0.12177901
187	0xf6	-0.0487116
188	0x0d	0.063325085
189	0xf8	-0.038969282
190	0xe5	-0.13152133
191	0x0e	0.068196245
192	0xbb	-0.33611006
193	0x0d	0.063325085
194	0x25	0.18023293
195	0x18	0.11690785
196	0x13	0.09255204
197	0xfd	-0.014613481
198	0x22	0.16561945
199	0x00	0.0
200	0x17	0.11203668
201	0xdf	-0.16074829
202	0x10	0.077938564
203	0xf5	-0.05358276
204	0x1b	0.13152133
205	0x17	0.11203668
206	0x1a	0.12665017
207	0xf8	-0.038969282
208	0x14	0.0974232
209	0x11	0.082809724
210	0xee	-0.08768088
211	0x00	0.0
212	0x12	0.08768088
213	0xe7	-0.12177901
214	0x5c	0.44814673
215	0xe3	-0.14126365
216	0x55	0.4140486
217	0xe6	-0.12665017
218	0xf8	-0.038969282
219	0xe2	-0.14613481
220	0xe6	-0.12665017
221	0x1c	0.13639249
222	0xf4	-0.058453925
223	0x02	0.0097423205
224	0x05	0.0243558
225	0xfe	-0.0097423205
226	0x18	0.11690785
227	0x15	0.10229436
228	0xf0	-0.077938564
229	0xed	-0.09255204
230	0x19	0.12177901
231	0x0e	0.068196245
232	0xfa	-0.029226962
233	0xf0	-0.077938564
234	0x09	0.04384044
235	0xe7	-0.12177901
236	0xec	-0.0974232
237	0x1d	0.14126365
238	0x09	0.04384044
239	0xfd	-0.014613481
240	0xc8	-0.27278498
241	0x14	0.0974232
242	0xe4	-0.13639249
243	0xf3	-0.063325085
244	0x15	0.10229436
245	0xf8	-0.038969282
246	0xe5	-0.13152133
247	0x16	0.10716552
248	0x35	0.2581715
249	0x00	0.0
250	0xe9	-0.11203668
251	0x0e	0.068196245
252	0xc8	-0.27278498
253	0x1e	0.14613481
254	0xe7	-0.12177901
255	0xe4	-0.13639249
