assets/models/jumpingjack.tflite (tflite, 28856 bytes, 6 tensors)

sequential/dense_2/MatMul f4 [3, 64]
0	0xbeaf80cb	-0.3427795
1	0xbed63860	-0.41839886
2	0x3ed049a8	0.40681195
3	0xbb21790f	-0.0024638807
4	0x3ec3978f	0.38201568
5	0x3e68f85b	0.2275099
6	0xbf173cf7	-0.590774
7	0xbe61084a	-0.21975818
8	0xbcac7299	-0.021050738
9	0xbf03a930	-0.51430035
10	0x3e38c92d	0.18045492
11	0x3e6dc141	0.23218252
12	0xbeb78fa1	-0.35851768
13	0x3edbc7af	0.42925784
14	0x3e8b1be1	0.27169707
15	0xbe8e062f	-0.27739093
16	0xbf1690d0	-0.58814716
17	0xbec86789	-0.3914149
18	0x3eef1cd7	0.4670169
19	0xbf2f981b	-0.6859147
20	0xbe0ecc81	-0.139452
21	0x3eceee57	0.40416214
22	0xbe8ca0f9	-0.27466562
23	0x3e5003cf	0.20313953
24	0xbefc3280	-0.49257278
25	0xbe3d2f20	-0.18475008
26	0x3e6b1f97	0.2296127
27	0xbea00346	-0.31252497
28	0xbe0b3ad8	-0.13596666
29	0xbec26b2c	-0.3797239
30	0xbf2f20a1	-0.6840916
31	0x3e49fd26	0.19725475
32	0xbed462f2	-0.4148174
33	0x3ee9d57b	0.45670685
34	0xbd3bd7fd	-0.04586028
35	0xbf19988f	-0.5999841
36	0xbf25728a	-0.646279
37	0x3e804be8	0.25057912
38	0x3d51fa56	0.05126413
39	0x3d0eb529	0.034840737
40	0xbf0b2a0d	-0.5436104
41	0xbe8dec77	-0.2771947
42	0xbe6f98b0	-0.2339809
43	0x3e6021ee	0.21887943
44	0xbea5baca	-0.3236907
45	0x3de1bb85	0.11022095
46	0xbe86e231	-0.26344445
47	0x3ece7886	0.40326327
48	0x3e7794e2	0.24177888
49	0xbf2782e5	-0.65434104
50	0x3e5b8c55	0.21440251
51	0xbed63494	-0.4183699
52	0x3bae4859	0.005318683
53	0xbc8b2e70	-0.016989917
54	0x3da767b4	0.08174077
55	0x3e26c57c	0.16286272
56	0x3bad18e6	0.005282509
57	0x3dc033ec	0.09384903
58	0x3e8e8d3c	0.27842128
59	0x3d83fd95	0.06444851
60	0x3eb840b0	0.35986853
61	0x3ead53f7	0.33853123
62	0x3f11add0	0.5690584
63	0xbf8d139d	-1.102161
64	0x3b61e608	0.0034469385
65	0x3e2267fb	0.15859978
66	0xbe0ded7f	-0.13860129
67	0x3d412404	0.047153488
68	0xbe7a514c	-0.24445075
69	0x3ebb7b05	0.36617294
70	0xbe41459e	-0.18874213
71	0x3e92a2b8	0.2863977
72	0x3d7810ef	0.060563024
73	0x3e85d9cf	0.26142737
74	0xbe416624	-0.1888662
75	0x3e8e0deb	0.27744994
76	0xbee24436	-0.44192666
77	0xbed72131	-0.4201751
78	0x3e939ffa	0.2883299
79	0x3f0af596	0.54280984
80	0x3d3fa060	0.046783805
81	0x3ee5a2f0	0.44850874
82	0xbea9b1ac	-0.33143365
83	0xbe8e2e74	-0.27769816
84	0xbdacff6a	-0.08447154
85	0xbeb83237	-0.3597581
86	0x3e9d024a	0.3066581
87	0xbf106a59	-0.56412274
88	0xbe7bc243	-0.24585824
89	0xbee525d8	-0.44755435
90	0x3c62292c	0.013803761
91	0xbdb875c1	-0.09006835
92	0xbda65ed1	-0.081235535
93	0xbe3333cd	-0.17500229
94	0x3ecba692	0.3977552
95	0x3e2edd3f	0.17076586
96	0x3e853ad9	0.2602146
97	0xbd9effdd	-0.07763646
98	0x3dc4044f	0.09571134
99	0xbcf4504d	-0.029823447
100	0xbe360231	-0.17774273
101	0x3e084ebd	0.13311286
102	0x3ee89b8c	0.45431173
103	0x3dae67d5	0.08515898
104	0x3ed92aaf	0.42415377
105	0x3f0b18ed	0.5433491
106	0xbe21b524	-0.15791756
107	0x3e9dcb91	0.3081937
108	0xbea6e7b4	-0.3259865
109	0xbdbc8cdc	-0.09206554
110	0x3e97db4a	0.29659492
111	0xbecc9ea0	-0.3996477
112	0x3e24d7fb	0.16098015
113	0x3f29bcad	0.6630352
114	0xbf344959	-0.7042442
115	0x3eb0452a	0.34427768
116	0x3e8f5672	0.2799564
117	0xbf0457f9	-0.51696736
118	0xbf0fde6e	-0.56198776
119	0x3dc8d6e7	0.09806614
120	0xbe89b188	-0.26893258
121	0x3ddf130b	0.10892304
122	0xbeb11b2b	-0.3459104
123	0xbe4470f4	-0.19183713
124	0xbf0495c2	-0.5179101
125	0x3e8a25b6	0.26981896
126	0xbebb663b	-0.36601433
127	0x3e6dc12f	0.23218225
128	0x3e9e141a	0.3087471
129	0x3e2fafeb	0.17156951
130	0xbed371fb	-0.41297898
131	0xbf6b49b3	-0.9190933
132	0xbcc44bf1	-0.023961993
133	0xbf07a6af	-0.52988714
134	0x3f26d6d3	0.65171546
135	0xbf00de69	-0.5033937
136	0xbf3373d4	-0.70098615
137	0x3e46f716	0.19430193
138	0xbec3d604	-0.38249218
139	0xbf86827a	-1.0508568
140	0x3f289a16	0.65860116
141	0x3ee0f486	0.43936557
142	0xbf6c663c	-0.923435
143	0xbdda047a	-0.10645385
144	0x3f113bf7	0.56732124
145	0xbe69e03e	-0.22839448
146	0xbe33fcc5	-0.17576893
147	0x3f0c6c97	0.54853195
148	0xbf009f09	-0.5024267
149	0xbedd55ab	-0.43229422
150	0xbd9f3e61	-0.0777557
151	0x3eae1782	0.3400231
152	0x3f072776	0.5279459
153	0x3ea2a835	0.31768957
154	0xbdc0b27a	-0.09409042
155	0x3f3a26b1	0.7271529
156	0xbf846dd0	-1.0346012
157	0x3f073797	0.528192
158	0xbec053d0	-0.37563944
159	0xbc62ee35	-0.013850738
160	0xbe6d93e6	-0.2320095
161	0xbf03721c	-0.5134599
162	0xbe10a932	-0.14127043
163	0x3f4b2af4	0.79362416
164	0x3f3b8cbb	0.7326161
165	0xbf1f43a3	-0.6221258
166	0x3e078541	0.13234426
167	0xbf532d5d	-0.82491094
168	0xbea9fb18	-0.33199382
169	0xbecd94fe	-0.40152735
170	0x3f59e613	0.8511669
171	0xbf58bd33	-0.84663695
172	0x3f134343	0.5752451
173	0xbe8cdb63	-0.2751113
174	0xbed395e1	-0.41325286
175	0xbe9696f9	-0.29412058
176	0xbf1f370d	-0.62193376
177	0x3e0ea20b	0.13929002
178	0x3eba9b79	0.3644674
179	0xbd7b6b0d	-0.06138139
180	0xbe5aad45	-0.2135516
181	0x3e655a4a	0.22397724
182	0x3e5b3991	0.21408679
183	0xbf2c2fd9	-0.6726051
184	0xbe4b4e5c	-0.1985411
185	0xbf4ec13c	-0.807636
186	0x3ec60673	0.38676795
187	0xbe31b3b3	-0.17353706
188	0xbc8f6759	-0.017505335
189	0xbf4058da	-0.75135577
190	0xbd4ab2f2	-0.04948706
191	0x3ee7287d	0.45148078

sequential/dense_1/BiasAdd/ReadVariableOp f4 [64]
0	0x3dcfd2ce	0.1014763
1	0x3d163f94	0.036681727
2	0x3d8bb959	0.06822462
3	0x3e52499c	0.20535892
4	0x3c8baf1e	0.017051276
5	0x3ddb53f1	0.1070937
6	0x3d8e125a	0.06937094
7	0x3d51a1c3	0.05117966
8	0x3e1ed9f2	0.15512827
9	0x3d956f79	0.07296652
10	0x3d14ae4c	0.036299035
11	0x3e4a3382	0.19746211
12	0x3d18141c	0.037128553
13	0x3dc60c12	0.09670271
14	0x3e5d3d08	0.21605313
15	0x3d16c5da	0.03680978
16	0x3d579f62	0.052642234
17	0x3d7318f8	0.059349984
18	0x3d0437df	0.032279845
19	0x3d0cb3a9	0.034351025
20	0x3e418261	0.18897392
21	0x3cb4d0a5	0.022072146
22	0x3d1cf4dd	0.038319457
23	0x3d4916d4	0.049094036
24	0x3d41fde9	0.04736129
25	0x3d8601b0	0.065432906
26	0xbd6f6809	-0.058448825
27	0x3db760a2	0.08953978
28	0x3e611c09	0.21983351
29	0x3d6c213f	0.057648893
30	0x3bdfe769	0.006833006
31	0xbd2a2467	-0.041538622
32	0x3a8a6da8	0.0010561245
33	0x3d94919b	0.072543345
34	0xbd3fc03c	-0.04681419
35	0x3d5c2e2a	0.053754963
36	0x3d72f5c6	0.05931642
37	0x3e2679de	0.16257426
38	0x3d249768	0.040183455
39	0x3e3cfb6b	0.18455283
40	0x3d1157d9	0.03548417
41	0x3d93632a	0.071966484
42	0x3d9c2e67	0.07626038
43	0x3e3ee892	0.18643406
44	0x3d117ea5	0.03552117
45	0xbc87ad4b	-0.016562125
46	0x3d5ad577	0.053426232
47	0x3d300043	0.042969
48	0x3e5a37f0	0.21310401
49	0x3d3d2a22	0.04618276
50	0x3daee1ad	0.08539138
51	0x3d07e024	0.03317274
52	0x3d1d9885	0.038475532
53	0x3d7480b5	0.059693057
54	0x3dbc1296	0.091832325
55	0x3e201b2d	0.15635367
56	0xbd663914	-0.056206778
57	0x3e46935c	0.1939215
58	0x3dec0b7d	0.11525629
59	0x3d91c5ad	0.07117782
60	0x3ce47195	0.027886191
61	0x3e2e1170	0.1699884
62	0x3d61dcf0	0.055142343
63	0x3d4d8d62	0.05018366

sequential/dense_2/BiasAdd/ReadVariableOp f4 [3]
0	0x3d5dbdd5	0.054136116
1	0xbd238197	-0.03991851
2	0xbd4eb0e0	-0.05046165

sequential/dense/BiasAdd/ReadVariableOp f4 [128]
0	0x00000000	0.0
1	0xbd0f9333	-0.03505249
2	0x3d0e45a1	0.034734372
3	0x00000000	0.0
4	0x00000000	0.0
5	0x00000000	0.0
6	0x00000000	0.0
7	0xbc878952	-0.016544972
8	0x00000000	0.0
9	0x00000000	0.0
10	0x00000000	0.0
11	0x00000000	0.0
12	0xbc8476fe	-0.016170021
13	0xbc113ef6	-0.008865109
14	0x00000000	0.0
15	0xbb909e1f	-0.0044133808
16	0xbc7cbeb1	-0.015426324
17	0xbc2cbe12	-0.010543363
18	0xbcb5569e	-0.022136029
19	0x00000000	0.0
20	0x3d3e349d	0.046436895
21	0x00000000	0.0
22	0xbb9516c9	-0.0045498353
23	0x3d2841c3	0.04107834
24	0xbbde63d1	-0.0067868014
25	0x00000000	0.0
26	0x00000000	0.0
27	0x3c3a0563	0.011353823
28	0xbc16762a	-0.009183446
29	0x00000000	0.0
30	0x00000000	0.0
31	0xbbfb6116	-0.0076714857
32	0x00000000	0.0
33	0x3d0419ae	0.032251053
34	0xbb8d36a3	-0.0043094917
35	0x00000000	0.0
36	0x00000000	0.0
37	0x00000000	0.0
38	0x00000000	0.0
39	0xbb8cc290	-0.0042956546
40	0xbbc5276f	-0.0060166637
41	0x00000000	0.0
42	0x3bb32c07	0.005467895
43	0xbbc3ece7	-0.0059791687
44	0x00000000	0.0
45	0xbd39115d	-0.045182575
46	0x00000000	0.0
47	0x00000000	0.0
48	0xbc5874f8	-0.013211481
49	0x00000000	0.0
50	0xbca5d675	-0.020243863
51	0x00000000	0.0
52	0xbb6a6fd1	-0.0035772214
53	0xbd4eba8b	-0.05047087
54	0x00000000	0.0
55	0x00000000	0.0
56	0xbc511679	-0.012761706
57	0xbd1e9a84	-0.038721576
58	0xbc4c7f0b	-0.012481461
59	0x00000000	0.0
60	0xbc118916	-0.0088827815
61	0x3c9d8a89	0.019231098
62	0xbd2c0cd5	-0.042004425
63	0xbcb788d2	-0.022404108
64	0x00000000	0.0
65	0xbd05c7b9	-0.032661173
66	0xbc684c76	-0.014178386
67	0xbc547339	-0.012966924
68	0xbbae2216	-0.005314122
69	0xbbdf4e3e	-0.006814747
70	0xbcf4ff1e	-0.029906806
71	0x00000000	0.0
72	0x00000000	0.0
73	0xbbc4b439	-0.0060029295
74	0x00000000	0.0
75	0x00000000	0.0
76	0xbc84e2e3	-0.01622147
77	0xbd30fa13	-0.04320724
78	0xbc8b9d54	-0.017042793
79	0xbbd1db11	-0.0064042886
80	0xbc309d84	-0.010779742
81	0xbbd32213	-0.006443271
82	0xbd0fbd62	-0.03509272
83	0xbba9dfcc	-0.0051841494
84	0xbc77c929	-0.015123644
85	0x3d054c9a	0.032543756
86	0x00000000	0.0
87	0x00000000	0.0
88	0xbbc4baa2	-0.0060036937
89	0x00000000	0.0
90	0xbb54622f	-0.0032407155
91	0xbd1ea816	-0.038734518
92	0x00000000	0.0
93	0xbbe8147e	-0.007082521
94	0x00000000	0.0
95	0xbd127e4a	-0.03576497
96	0xbbc4b767	-0.0060033086
97	0x00000000	0.0
98	0x00000000	0.0
99	0x3d11ba51	0.035578076
100	0x00000000	0.0
101	0x00000000	0.0
102	0x00000000	0.0
103	0xbbc4a969	-0.0060016406
104	0x3ca6b9c0	0.020352244
105	0x00000000	0.0
106	0xbd4293b5	-0.047504146
107	0x00000000	0.0
108	0xbc1408d6	-0.00903531
109	0xbb8f266a	-0.004368593
110	0xbc450452	-0.012024956
111	0xbc0fa4c4	-0.0087673105
112	0xbbefabf9	-0.007314202
113	0x00000000	0.0
114	0xbbca42f4	-0.006172532
115	0xbc102a2e	-0.008799119
116	0xbc8cb264	-0.017174907
117	0x00000000	0.0
118	0x00000000	0.0
119	0xbcbe870a	-0.023257751
120	0xbb563073	-0.0032682687
121	0x00000000	0.0
122	0xbc4d93a1	-0.0125474045
123	0xbd233e10	-0.03985411
124	0xbb6add4f	-0.0035837477
125	0x3c82c78c	0.015964292
126	0x00000000	0.0
127	0x00000000	0.0

sequential/dense/MatMul i1 [128, 132] scale=0.008904935 zero_point=0
0	0xfc	-0.03561974
1	0xfa	-0.05342961
2	0x0f	0.13357402
3	0x08	0.07123948
4	0x0f	0.13357402
5	0xf2	-0.12466909
6	0x0b	0.09795428
7	0x07	0.062334545
8	0xff	-0.008904935
9	0x09	0.08014441
10	0xfc	-0.03561974
11	0xfc	-0.03561974
12	0x04	0.03561974
13	0x0b	0.09795428
14	0x04	0.03561974
15	0xf9	-0.062334545
16	0xf5	-0.09795428
17	0xfd	-0.026714806
18	0x02	0.01780987
19	0x01	0.008904935
20	0xf0	-0.14247896
21	0xf4	-0.10685922
22	0x0f	0.13357402
23	0x05	0.044524673
24	0x0d	0.115764156
25	0xf7	-0.08014441
26	0x09	0.08014441
27	0x04	0.03561974
28	0xf7	-0.08014441
29	0x09	0.08014441
30	0xfa	-0.05342961
31	0x03	0.026714806
32	0xf4	-0.10685922
33	0xf6	-0.08904935
34	0xf3	-0.115764156
35	0x03	0.026714806
36	0x04	0.03561974
37	0xff	-0.008904935
38	0xf0	-0.14247896
39	0xfa	-0.05342961
40	0xf4	-0.10685922
41	0x0b	0.09795428
42	0xf0	-0.14247896
43	0x09	0.08014441
44	0x00	0.0
45	0xef	-0.15138389
46	0x00	0.0
47	0x01	0.008904935
48	0xfa	-0.05342961
49	0x04	0.03561974
50	0xf9	-0.062334545
51	0x02	0.01780987
52	0xfb	-0.044524673
53	0xfb	-0.044524673
54	0xf5	-0.09795428
55	0xf3	-0.115764156
56	0xf8	-0.07123948
57	0xf4	-0.10685922
58	0xfa	-0.05342961
59	0xf8	-0.07123948
60	0xff	-0.008904935
61	0xfd	-0.026714806
62	0xf8	-0.07123948
63	0x10	0.14247896
64	0x07	0.062334545
65	0xf4	-0.10685922
66	0xf5	-0.09795428
67	0x00	0.0
68	0xff	-0.008904935
69	0x08	0.07123948
70	0xfb	-0.044524673
71	0xf2	-0.12466909
72	0x10	0.14247896
73	0x10	0.14247896
74	0xf2	-0.12466909
75	0xfb	-0.044524673
76	0xf1	-0.13357402
77	0xf1	-0.13357402
78	0x00	0.0
79	0xef	-0.15138389
80	0xf8	-0.07123948
81	0xf1	-0.13357402
82	0x0e	0.12466909
83	0xfa	-0.05342961
84	0x0b	0.09795428
85	0xf8	-0.07123948
86	0x0a	0.08904935
87	0x0a	0.08904935
88	0xf6	-0.08904935
89	0xf6	-0.08904935
90	0xff	-0.008904935
91	0xf0	-0.14247896
92	0x09	0.08014441
93	0x02	0.01780987
94	0x00	0.0
95	0xf1	-0.13357402
96	0x0e	0.12466909
97	0x01	0.008904935
98	0xf3	-0.115764156
99	0x07	0.062334545
100	0xf2	-0.12466909
101	0xff	-0.008904935
102	0xf8	-0.07123948
103	0xfc	-0.03561974
104	0xf9	-0.062334545
105	0xfc	-0.03561974
106	0x06	0.05342961
107	0xf6	-0.08904935
108	0x10	0.14247896
109	0x01	0.008904935
110	0x0c	0.10685922
111	0x06	0.05342961
112	0xfd	-0.026714806
113	0xfa	-0.05342961
114	0xf6	-0.08904935
115	0x0d	0.115764156
116	0x04	0.03561974
117	0xfb	-0.044524673
118	0xef	-0.15138389
119	0xf0	-0.14247896
120	0x05	0.044524673
121	0x04	0.03561974
122	0xf4	-0.10685922
123	0x0d	0.115764156
124	0xfa	-0.05342961
125	0xf0	-0.14247896
126	0xfb	-0.044524673
127	0x01	0.008904935
128	0xfe	-0.01780987
129	0xf7	-0.08014441
130	0xf6	-0.08904935
131	0xef	-0.15138389
132	0x18	0.21371844
133	0x09	0.08014441
134	0x04	0.03561974
135	0xf4	-0.10685922
136	0x01	0.008904935
137	0x07	0.062334545
138	0x01	0.008904935
139	0x0b	0.09795428
140	0x19	0.22262338
141	0xfd	-0.026714806
142	0x01	0.008904935
143	0x09	0.08014441
144	0x12	0.16028883
145	0x03	0.026714806
146	0x0b	0.09795428
147	0xfd	-0.026714806
148	0x15	0.18700363
149	0xf4	-0.10685922
150	0xf5	-0.09795428
151	0x07	0.062334545
152	0x11	0.15138389
153	0xf8	-0.07123948
154	0xfb	-0.044524673
155	0xf8	-0.07123948
156	0xfe	-0.01780987
157	0xf6	-0.08904935
158	0xf1	-0.13357402
159	0x00	0.0
160	0x18	0.21371844
161	0x03	0.026714806
162	0xe7	-0.22262338
163	0xee	-0.16028883
164	0x0a	0.08904935
165	0x0a	0.08904935
166	0xfd	-0.026714806
167	0xf3	-0.115764156
168	0x07	0.062334545
169	0x0b	0.09795428
170	0x0b	0.09795428
171	0x09	0.08014441
172	0x13	0.16919376
173	0xec	-0.1780987
174	0xf1	-0.13357402
175	0xed	-0.16919376
176	0x16	0.19590856
177	0xfa	-0.05342961
178	0x08	0.07123948
179	0x06	0.05342961
180	0x1b	0.24043325
181	0xf2	-0.12466909
182	0xeb	-0.18700363
183	0xeb	-0.18700363
184	0xff	-0.008904935
185	0xef	-0.15138389
186	0xf8	-0.07123948
187	0xf4	-0.10685922
188	0x1d	0.2582431
189	0x06	0.05342961
190	0x10	0.14247896
191	0x03	0.026714806
192	0x10	0.14247896
193	0x0b	0.09795428
194	0xf2	-0.12466909
195	0xf4	-0.10685922
196	0x0e	0.12466909
197	0xf8	-0.07123948
198	0x00	0.0
199	0x0b	0.09795428
200	0x13	0.16919376
201	0x06	0.05342961
202	0x0d	0.115764156
203	0xf8	-0.07123948
204	0x17	0.2048135
205	0xf3	-0.115764156
206	0x08	0.07123948
207	0x04	0.03561974
208	0x16	0.19590856
209	0xfa	-0.05342961
210	0x0e	0.12466909
211	0x06	0.05342961
212	0x04	0.03561974
213	0xf1	-0.13357402
214	0x12	0.16028883
215	0xf4	-0.10685922
216	0xfd	-0.026714806
217	0x06	0.05342961
218	0x06	0.05342961
219	0xec	-0.1780987
220	0x0e	0.12466909
221	0xf9	-0.062334545
222	0x0a	0.08904935
223	0x0b	0.09795428
224	0x07	0.062334545
225	0xf4	-0.10685922
226	0x12	0.16028883
227	0xf7	-0.08014441
228	0x19	0.22262338
229	0xee	-0.16028883
230	0xd4	-0.39181712
231	0xf5	-0.09795428
232	0x18	0.21371844
233	0xf2	-0.12466909
234	0xdf	-0.29386285
235	0xfd	-0.026714806
236	0x15	0.18700363
237	0xf4	-0.10685922
238	0xe6	-0.23152831
239	0x05	0.044524673
240	0x0a	0.08904935
241	0xf4	-0.10685922
242	0xfd	-0.026714806
243	0xf5	-0.09795428
244	0xf2	-0.12466909
245	0xf1	-0.13357402
246	0xfc	-0.03561974
247	0xf7	-0.08014441
248	0x21	0.29386285
249	0xef	-0.15138389
250	0xfa	-0.05342961
251	0x06	0.05342961
252	0x09	0.08014441
253	0xe7	-0.22262338
254	0xf6	-0.08904935
255	0xfc	-0.03561974

sequential/dense_1/MatMul i1 [64, 128] scale=0.005996563 zero_point=0
0	0x06	0.03597938
1	0xcf	-0.2938316
2	0x74	0.6956013
3	0xeb	-0.12592782
4	0xff	-0.005996563
5	0x0c	0.07195876
6	0xe7	-0.14991407
7	0x0f	0.089948446
8	0x0a	0.05996563
9	0xed	-0.113934696
10	0x0d	0.07795532
11	0xe9	-0.13792095
12	0xfe	-0.011993126
13	0xea	-0.13192439
14	0xee	-0.10793813
15	0xe3	-0.17390032
16	0x0c	0.07195876
17	0x0b	0.065962195
18	0xfe	-0.011993126
19	0x0e	0.08395188
20	0x52	0.49171817
21	0xed	-0.113934696
22	0x11	0.10194157
23	0x74	0.6956013
24	0x15	0.12592782
25	0xf6	-0.05996563
26	0x04	0.023986252
27	0x2e	0.2758419
28	0xed	-0.113934696
29	0x09	0.053969067
30	0xf5	-0.065962195
31	0xfc	-0.023986252
32	0x10	0.09594501
33	0x25	0.22187284
34	0x14	0.11993126
35	0xe8	-0.14391752
36	0x12	0.10793813
37	0x0c	0.07195876
38	0xe8	-0.14391752
39	0x06	0.03597938
40	0x17	0.13792095
41	0xf0	-0.09594501
42	0x03	0.01798969
43	0x00	0.0
44	0x0d	0.07795532
45	0xea	-0.13192439
46	0xfc	-0.023986252
47	0xfc	-0.023986252
48	0x43	0.40176973
49	0x16	0.13192439
50	0xf1	-0.089948446
51	0xe6	-0.15591064
52	0xe9	-0.13792095
53	0xde	-0.20388314
54	0x05	0.029982815
55	0x13	0.113934696
56	0x13	0.113934696
57	0xed	-0.113934696
58	0x05	0.029982815
59	0xed	-0.113934696
60	0x06	0.03597938
61	0x25	0.22187284
62	0xe5	-0.1619072
63	0xf5	-0.065962195
64	0xe5	-0.1619072
65	0x09	0.053969067
66	0xfb	-0.029982815
67	0xed	-0.113934696
68	0x12	0.10793813
69	0xf3	-0.07795532
70	0xf9	-0.04197594
71	0x1c	0.16790377
72	0x1c	0.16790377
73	0xf5	-0.065962195
74	0xea	-0.13192439
75	0xf1	-0.089948446
76	0x1c	0.16790377
77	0xf3	-0.07795532
78	0x0c	0.07195876
79	0x12	0.10793813
80	0x12	0.10793813
81	0xe7	-0.14991407
82	0xf1	-0.089948446
83	0x0a	0.05996563
84	0x09	0.053969067
85	0x4c	0.45573878
86	0x05	0.029982815
87	0x09	0.053969067
88	0xfc	-0.023986252
89	0xeb	-0.12592782
90	0x15	0.12592782
91	0xfb	-0.029982815
92	0x04	0.023986252
93	0xf7	-0.053969067
94	0xe6	-0.15591064
95	0xea	-0.13192439
96	0xf6	-0.05996563
97	0xe3	-0.17390032
98	0x04	0.023986252
99	0x43	0.40176973
100	0x0a	0.05996563
101	0x00	0.0
102	0x0b	0.065962195
103	0xf8	-0.047972504
104	0x0b	0.065962195
105	0xf5	-0.065962195
106	0xe8	-0.14391752
107	0xe4	-0.16790377
108	0x0a	0.05996563
109	0x0c	0.07195876
110	0x0b	0.065962195
111	0x04	0.023986252
112	0x0f	0.089948446
113	0x11	0.10194157
114	0xe6	-0.15591064
115	0xf5	-0.065962195
116	0x22	0.20388314
117	0x0c	0.07195876
118	0xfa	-0.03597938
119	0x09	0.053969067
120	0x01	0.005996563
121	0x10	0.09594501
122	0x0d	0.07795532
123	0xc8	-0.33580753
124	0xe8	-0.14391752
125	0x23	0.20987971
126	0xfd	-0.01798969
127	0xf7	-0.053969067
128	0xee	-0.10793813
129	0x25	0.22187284
130	0x2a	0.25185564
131	0xff	-0.005996563
132	0x19	0.14991407
133	0xf8	-0.047972504
134	0x18	0.14391752
135	0xe3	-0.17390032
136	0x12	0.10793813
137	0xf0	-0.09594501
138	0xfb	-0.029982815
139	0xf7	-0.053969067
140	0x17	0.13792095
141	0xe8	-0.14391752
142	0x0c	0.07195876
143	0xfd	-0.01798969
144	0x13	0.113934696
145	0x0a	0.05996563
146	0x07	0.04197594
147	0x10	0.09594501
148	0xe5	-0.1619072
149	0x02	0.011993126
150	0xfa	-0.03597938
151	0xff	-0.005996563
152	0x0e	0.08395188
153	0xf5	-0.065962195
154	0x18	0.14391752
155	0xfb	-0.029982815
156	0xf1	-0.089948446
157	0x08	0.047972504
158	0xfb	-0.029982815
159	0x07	0.04197594
160	0xf1	-0.089948446
161	0xe0	-0.19189002
162	0x1c	0.16790377
163	0xe7	-0.14991407
164	0xfd	-0.01798969
165	0x02	0.011993126
166	0x0e	0.08395188
167	0xe8	-0.14391752
168	0xfd	-0.01798969
169	0xf0	-0.09594501
170	0xd9	-0.23386596
171	0xfa	-0.03597938
172	0xfc	-0.023986252
173	0x01	0.005996563
174	0x08	0.047972504
175	0xe9	-0.13792095
176	0x3b	0.35379723
177	0x17	0.13792095
178	0xf2	-0.08395188
179	0x1d	0.17390032
180	0xf0	-0.09594501
181	0x14	0.11993126
182	0xef	-0.10194157
183	0xf4	-0.07195876
184	0xe2	-0.17989689
185	0xfc	-0.023986252
186	0xef	-0.10194157
187	0x02	0.011993126
188	0x0d	0.07795532
189	0x00	0.0
190	0xf9	-0.04197594
191	0xe6	-0.15591064
192	0xf5	-0.065962195
193	0x00	0.0
194	0xeb	-0.12592782
195	0x10	0.09594501
196	0xf9	-0.04197594
197	0xf3	-0.07795532
198	0xeb	-0.12592782
199	0xe4	-0.16790377
200	0x16	0.13192439
201	0xeb	-0.12592782
202	0xf9	-0.04197594
203	0x0f	0.089948446
204	0xf7	-0.053969067
205	0xf4	-0.07195876
206	0x05	0.029982815
207	0x1c	0.16790377
208	0x1d	0.17390032
209	0x18	0.14391752
210	0x18	0.14391752
211	0xf3	-0.07795532
212	0xff	-0.005996563
213	0x01	0.005996563
214	0xff	-0.005996563
215	0xee	-0.10793813
216	0xe9	-0.13792095
217	0xf4	-0.07195876
218	0x03	0.01798969
219	0x17	0.13792095
220	0x09	0.053969067
221	0xe3	-0.17390032
222	0xef	-0.10194157
223	0xf2	-0.08395188
224	0x01	0.005996563
225	0x1a	0.15591064
226	0xf0	-0.09594501
227	0xfe	-0.011993126
228	0x11	0.10194157
229	0xe4	-0.16790377
230	0x07	0.04197594
231	0xe8	-0.14391752
232	0x05	0.029982815
233	0xee	-0.10793813
234	0x0c	0.07195876
235	0xf9	-0.04197594
236	0xf7	-0.053969067
237	0x10	0.09594501
238	0x0b	0.065962195
239	0x14	0.11993126
240	0x07	0.04197594
241	0xe8	-0.14391752
242	0xff	-0.005996563
243	0xf7	-0.053969067
244	0x0d	0.07795532
245	0x0c	0.07195876
246	0xee	-0.10793813
247	0x0e	0.08395188
248	0x05	0.029982815
249	0xfc	-0.023986252
250	0xf0	-0.09594501
251	0xf8	-0.047972504
252	0x11	0.10194157
253	0x14	0.11993126
254	0x1d	0.17390032
255	0xe5	-0.1619072
