assets/models/plank_model.tflite (tflite, 292752 bytes, 10 tensors)

sequential/dense_1/BiasAdd/ReadVariableOp f4 [480]
000000 02 6f 05 bb 4e c7 ad 3a 5b 0f a0 3b d4 b3 d8 bb
       -0.0020360355 0.001325825 0.004884643 -0.006613234
000010 60 1e 88 3b 83 8e 39 bb ec 6c 2f bc 4f 4b 37 3c
       0.0041540116 -0.0028313703 -0.010707121 0.011187389
000020 99 79 59 bc 72 d6 53 bb c6 49 a1 bb 8f 5b 5e bb
       -0.01327362 -0.0032323864 -0.0049221246 -0.0033929085
000030 50 1a 52 3c 91 15 46 3c 53 c5 af 3b a3 80 0e 3c
       0.012823656 0.012090103 0.005364099 0.008697662
000040 f6 a1 cf bb 89 a7 a4 bb e5 ce c2 39 61 e9 0c 3c
       -0.006336446 -0.0050248546 0.00037156712 0.008600564
000050 f5 62 5f 3c 25 3d 25 3c 5d 6c fb 3a 9c 83 05 bb
       0.013634433 0.010085379 0.0019182075 -0.0020372635
000060 19 33 0f 3c d1 b7 95 bb e2 4b 2f 3b c3 e1 37 3b
       0.00874021 -0.0045690318 0.002674811 0.0028058148
000070 93 c4 96 3b 70 7a 4a 3b 55 8c a3 3b 2c 94 4b ba
       0.00460107 0.0030895732 0.004991094 -0.0007765915
000080 f4 46 3f 3b be 2a af 3b c9 5b 09 3b 2d ac 11 3c
       0.0029186578 0.0053456714 0.002095925 0.008891148
000090 b0 9f 0d 3b 79 30 27 ba fe f0 85 38 6e 3b 3c bc
       0.0021610074 -0.00063777674 6.3868225e-05 -0.0114887785
0000a0 ee 2e 01 bc 92 65 22 bb 56 e6 c8 3b 74 c6 07 3c
       -0.007884724 -0.002477978 0.006130974 0.008287061
0000b0 f1 67 5f 3b 91 16 0c 3c eb 67 1d bc a2 0d 92 3c
       0.0034089054 0.008550302 -0.0096072955 0.017828766
0000c0 e4 93 1b bb 91 bf 87 ba ae 8d 0e bb 86 3e 51 bc
       -0.0023739273 -0.0010356774 -0.0021751928 -0.012771254
0000d0 3c df 8a ba 1f fa 1e 3c e9 6a b4 3b 24 4c 10 3b
       -0.0010595093 0.009703188 0.0055059087 0.002201804
0000e0 ed ed c1 3b c5 2b 73 ba ef 13 f4 3b 26 0c f3 bb
       0.0059182555 -0.00092762365 0.0074486653 -0.0074172197
0000f0 cf a9 99 3b 23 79 34 bc da ca 10 bc 6b 02 dd 3b
       0.004689432 -0.011015209 -0.008837426 0.006744673
000100 25 26 4b 3b bf 50 fa bb 97 34 af 3a f7 11 67 ba
       0.0030998078 -0.00763902 0.0013367113 -0.00088146277
000110 b2 e7 87 bb b4 eb b7 3a e1 c1 0c bb 40 3d ca 3b
       -0.0041474933 0.0014032037 -0.0021477866 0.0061718524
000120 f1 0c 5b 3c b7 26 e4 3a 0e 5d c8 bb d5 12 af 3a
       0.013369785 0.0017406557 -0.0061146086 0.0013357053
000130 6d 1f 9b 39 31 37 1f bc 45 71 fe 3b 42 39 6c 3c
       0.00029587318 -0.0097177485 0.0077649676 0.014417948
000140 0c 98 c8 3b 4f 08 ae bb c2 f2 6d 3c d7 9d 25 bc
       0.006121641 -0.005311049 0.01452321 -0.010108433
000150 84 db 01 ba cd 25 0b bc c0 12 b7 3b 34 6e 7b 3c
       -0.000495367 -0.008492899 0.005586952 0.015346099
000160 44 ef 1d bc a4 01 cf ba f8 5a 66 3b 80 97 54 3b
       -0.009639565 -0.0015793336 0.0035149436 0.0032438934
000170 1f bf 16 3b 7b 78 3b 3c 2a 1d 30 3c b3 0c 2b 39
       0.00230021 0.011442299 0.010749141 0.00016312562
000180 07 56 42 3c 76 21 dd 3a 28 ae 73 3c 98 77 eb ba
       0.011861331 0.0016870934 0.014873065 -0.0017964719
000190 b5 21 70 3b b9 65 94 3b 53 e2 13 bc 46 1f 18 3c
       0.0036641185 0.004528728 -0.009026128 0.0092848
0001a0 dc 70 45 3c 16 68 fd 3b 57 a2 ac ba 60 8e af 3c
       0.012050834 0.0077333553 -0.001317094 0.021430194
0001b0 4e fa b4 3b d1 c4 5b bc d6 79 5e bb 28 1f 53 bb
       0.0055230027 -0.013413624 -0.0033947132 -0.0032214615
0001c0 83 d4 0f 3b 1b fd 78 3c e1 c5 0b bb f2 aa 3e ba
       0.0021946735 0.015197064 -0.0021327662 -0.00072733976
0001d0 b9 97 f5 bb 7b c2 ee ba 57 e3 b1 bb 02 05 e4 3b
       -0.0074948934 -0.0018215919 -0.0054287123 0.006958605
0001e0 0a 91 84 3b d6 a2 d5 3b b3 28 e3 bb cc 7e fc b9
       0.0040456103 0.0065196557 -0.006932342 -0.00048159657
0001f0 71 46 e4 ba e2 31 1b bb 60 ce 0b 3b e9 60 c8 3b
       -0.0017416013 -0.0023680856 0.0021332726 0.006115068
000200 fd a3 9e bb f6 eb c9 38 4e 81 2e 3b 69 63 71 3c
       -0.0048413263 9.628378e-05 0.0026627365 0.014733174
000210 b1 3c 72 3c 54 10 da 3b d2 bb 0c bb 83 e7 28 3c
       0.014784978 0.0066547785 -0.0021474254 0.010309103
000220 e2 d9 ac 3b 54 7c 1b bc e7 f6 f4 3b e9 0d 3f 3c
       0.005274997 -0.009490091 0.007475722 0.011661031
000230 6a cc 3d 3b 3d 97 49 bb c7 95 6b bc 81 67 c6 bb
       0.0028960952 -0.003076031 -0.014378971 -0.006054819
000240 05 a6 ae 3b 7c f6 11 bc e9 8b 61 bb 12 b5 90 3b
       0.0053298497 -0.008908864 -0.0034415668 0.0044161165
000250 09 38 b7 bb 6c 24 14 bc 87 a0 a6 3b c8 19 99 3a
       -0.0055913967 -0.009041887 0.0050850543 0.0011680657
000260 57 da a5 bb b4 d0 9a ba 64 34 26 bc a8 5e 8d 3b
       -0.0050614285 -0.0011811466 -0.010144327 0.0043142624
000270 98 ac 02 3c c9 9e 73 ba d3 6d 21 3c 2f 34 4c 3c
       0.00797572 -0.0009293375 0.009852844 0.012463613
000280 95 7c f7 bb 19 d3 50 3c 86 07 0a bc 68 3a 62 3a
       -0.007552693 0.012745642 -0.008424645 0.0008629919
000290 e7 1e db 3b 9d 32 af 3b 2c 0a 12 bc 57 b1 9f 3b
       0.0066870335 0.0053466097 -0.008913558 0.0048734355
0002a0 5a 78 a1 3b 70 6c 41 ba 05 46 03 bb 10 66 f4 bb
       0.004927677 -0.0007378524 -0.0020030749 -0.007458456
0002b0 fd 77 01 3b 53 c2 0e bb 27 f8 48 3c 39 73 83 ba
       0.0019755356 -0.0021783307 0.012266195 -0.0010028846
0002c0 f0 3d 5e bb 14 b1 f6 bb c0 00 49 3b 27 ac 17 bb
       -0.003391143 -0.0075284336 0.0030670613 -0.0023143382
0002d0 36 18 fb ba 19 d7 9b bb bb 69 f8 ba d7 14 c1 3b
       -0.0019156996 -0.0047558662 -0.0018952409 0.005892377
0002e0 f3 71 b6 bb 2b 2f d8 bb 41 94 10 bc da b8 a3 3c
       -0.005567783 -0.0065974197 -0.008824409 0.019985605
0002f0 bd b2 18 3c 75 49 f6 3a 67 ab 9f 3b 01 2e 61 bb
       0.009319958 0.0018790202 0.0048727277 -0.0034359696
000300 d3 28 0d 3c 8f f2 a2 bb 6f 6b eb 3b 7a 81 7c 3b
       0.00861569 -0.004972763 0.007184438 0.0038529322
000310 5b 69 3a 3c 30 04 18 bc 61 d5 85 3b d7 a2 99 bb
       0.011377658 -0.009278342 0.0040842746 -0.0046886015
000320 dd 67 2e ba 05 c3 23 bb b2 d2 9a bb 76 67 74 bc
       -0.000665305 -0.0024988067 -0.004724824 -0.014917245
000330 11 37 bf 3b 3b 8d a4 3b c3 10 6f 3b e0 be 7e 3c
       0.005835422 0.005021719 0.0036478497 0.015548438
000340 08 16 c7 bb 5d 5f 5d 3b 51 48 b4 3b 96 4c 14 3b
       -0.0060756244 0.0033778765 0.005501785 0.0022628657
000350 46 21 dc 3b 21 c2 54 3c a1 88 5f ba 9d 05 aa 3b
       0.0067178337 0.012985737 -0.0008527134 0.0051886574
000360 20 ef 12 bc 95 49 88 3b 1c 75 f1 3b 62 b4 08 3a
       -0.008968145 0.0041591623 0.007368697 0.00052148674
000370 f6 41 c8 3b 0b 6a 4a 3a 05 3f 88 3c a0 24 2a b9
       0.006111379 0.000772149 0.016631613 -0.00016226107
000380 ce 7f 89 3a e0 cd fe 3a 9e 82 28 bb 22 30 4e 3b
       0.0010490359 0.0019440018 -0.002571262 0.0031461795
000390 a3 1f 5a bc f9 1c 3e 3c 9d 17 ab bb db 7e f1 3b
       -0.013313207 0.011603587 -0.005221321 0.0073698587
0003a0 29 90 67 3a a8 37 59 3b 21 35 88 3c c7 1e c4 bb
       0.0008833432 0.0033144746 0.016626896 -0.0059851143
0003b0 46 a9 65 3b b4 32 e5 3b 77 82 0b 3c d1 6d 43 bb
       0.0035043522 0.0069945697 0.008514992 -0.0029820094
0003c0 32 0a 03 3b c8 fd c9 bb a5 94 32 3c 76 20 5e 3c
       0.001999509 -0.0061642863 0.010899697 0.013557544
0003d0 23 e2 1a 3c c6 dc 01 b9 02 25 8a bc ba c5 39 3b
       0.009453329 -0.00012384643 -0.01686335 0.0028346614
0003e0 bd 2e 4e 3a ae f2 90 bb f0 5c a4 ba 55 27 e9 bb
       0.0007865241 -0.004423461 -0.0012539905 -0.0071152844
0003f0 63 d2 9f 3a 00 00 00 00 25 d0 57 bb 66 ed b4 3b
       0.0012193437 0.0 -0.003293046 0.005521464

sequential/dense_2/BiasAdd/ReadVariableOp f4 [256]
000000 e5 1f 81 bb 13 ae a2 3b da c4 4f 3c 42 e3 a4 3b
       -0.0039405697 0.004964599 0.01268121 0.005031974
000010 8c cc 80 3b e3 ab 7a 3c bb 72 e3 3b 47 40 90 3c
       0.003930634 0.01529977 0.006941167 0.017608775
000020 6c 2d 6b 3b 6b 00 f3 3a 39 5c d8 3b df 52 99 3b
       0.0035885228 0.0018539553 0.0066027907 0.0046790685
000030 bf f6 38 3c e6 12 db 3b bf aa 45 3b 7f dc c3 3a
       0.011289298 0.0066856025 0.0030161587 0.0014943032
000040 a6 5c 2e 3c 73 9f 11 39 82 84 a8 38 12 f8 51 3c
       0.010642206 0.00013887677 8.035546e-05 0.012815492
000050 6d d0 83 ba b4 c6 3a bb 45 f7 93 3b eb 7f 0a 3b
       -0.0010056623 -0.0028499784 0.004515561 0.0021133374
000060 e5 f4 05 3a d3 c0 7d 3b fd a6 44 3b 96 b2 88 3c
       0.00051100395 0.0038719669 0.003000676 0.016686719
000070 26 68 20 bc d6 c1 0b 3c f0 1a 1a 3c 45 84 89 3b
       -0.009790456 0.008530101 0.009405836 0.004196676
000080 73 34 07 3c b8 f7 1e 3c 30 80 50 ba a3 25 07 bb
       0.008252251 0.009702615 -0.0007953672 -0.0020621798
000090 c5 c5 da bb 07 e2 c3 3b 47 fe 87 3c a6 98 0c 3c
       -0.006676408 0.0059778723 0.016600741 0.008581316
0000a0 9b fe 27 3a 7d f7 bf 3b 7e 89 0d 3b 9f 38 2b 3c
       0.00064084836 0.0058583603 0.0021596844 0.010450511
0000b0 3e 49 7a 39 ec f0 a5 3b 06 0c 8b 3c e7 94 9a 3b
       0.00023869143 0.0050641205 0.016973507 0.0047174576
0000c0 78 90 97 3c c0 67 0e 3c 4b 2a 0d 3b ac 87 a8 bb
       0.018501505 0.008691728 0.00215401 -0.0051431265
0000d0 b9 d3 cb ba 4a 40 8c 3a f3 d5 92 bb 42 06 77 38
       -0.0015550769 0.0010700312 -0.004481071 5.8895217e-05
0000e0 e0 44 80 3c b4 58 34 3c e4 e5 2a bb a0 ce 31 3c
       0.015657842 0.011007477 -0.0026076967 0.010852486
0000f0 fb 9a 16 3c 38 b4 0a 3c e2 02 87 bb 22 26 e1 3a
       0.009192224 0.008465819 -0.0041202167 0.0017177502
000100 aa ee 61 bb 9e 3e 0c bc 5f 6c b8 3b 9e 3f 87 3c
       -0.003447453 -0.008559851 0.005628153 0.016509827
000110 65 16 51 3c 30 f6 38 3a 5a 47 f8 bb 23 f1 53 3c
       0.012761687 0.0007055728 -0.007576865 0.012935909
000120 17 8a 3e 3b 8a 9a 54 3b c2 6e 62 3b 4e 23 49 3b
       0.0029074007 0.0032440745 0.003455088 0.003069121
000130 84 15 69 3a 6b 26 ed 3a 00 c0 52 3c 46 43 c4 bb
       0.00088914507 0.0018093114 0.012863159 -0.005989465
000140 63 42 b2 38 75 6e c0 bb 04 f5 db bb 7b 4c 62 3c
       8.500067e-05 -0.0058725425 -0.0067125577 0.01381218
000150 6c 5f 57 3c 9d 53 1b 3c 10 cb 8e 3c 76 7a 06 3b
       0.013145309 0.009480384 0.017430812 0.002051977
000160 54 32 59 3c 62 d0 5c 3b 41 91 c7 bb 04 38 61 3c
       0.013256628 0.0033693542 -0.0060903137 0.013746265
000170 fb 53 8e b9 6c a6 84 3c 81 09 04 3c f9 2b b3 3b
       -0.0002714692 0.016192637 0.0080589065 0.0054678884
000180 18 4d b7 b8 83 75 21 bb 88 51 7b bb fb c8 a8 3c
       -8.74048e-05 -0.0024636693 -0.0038348157 0.020603647
000190 91 2e fd 3a 32 01 90 3b 61 b6 2a bc 18 7e 8b 3b
       0.0019316246 0.0043946737 -0.010419459 0.004256975
0001a0 08 f5 01 3c 6c 8e 72 39 94 bc a5 3b 64 39 96 b9
       0.007931955 0.00023131975 0.0050578807 -0.0002865299
0001b0 7c b9 d9 ba 32 40 19 3c 3f 30 12 3c 7c 80 27 3c
       -0.0016611065 0.009353684 0.008922636 0.010223504
0001c0 02 76 13 3c 89 af 99 3b 05 c5 d4 3b 0a 26 06 bc
       0.009000303 0.004690115 0.006493213 -0.00818778
0001d0 4c 9b c1 bb 5c 1e 18 3b 16 98 06 3c bc 26 aa 3b
       -0.0059084054 0.0023211455 0.008214971 0.005192606
0001e0 b4 84 8d bb 5f da 83 3c 93 4f 65 b9 08 64 b0 ba
       -0.004318798 0.016095338 -0.00021868786 -0.0013457546
0001f0 2f 7c 11 3c 39 21 bd 3b ad 20 52 3c 6d ff 97 b9
       0.008879705 0.0057717827 0.012825173 -0.0002899127
000200 3f 09 c9 bb 6f 8a 4d 3b e8 9a 2c 3c bd c2 25 3b
       -0.0061351354 0.003136303 0.010534979 0.0025293075
000210 44 f1 8c 3a fb a3 6b bb af f3 37 3c 1f af b0 3a
       0.0010753055 -0.0035955894 0.011227532 0.0013479925
000220 7a 82 b6 bb 72 01 7d 3c b3 61 f7 3b 80 db 09 3c
       -0.0055697532 0.015442239 0.0075494885 0.008414149
000230 55 24 17 bb 34 2d e2 ba 06 ca bf 3b 88 8d 64 3c
       -0.0023062427 -0.0017255903 0.0058529405 0.013949759
000240 6d a9 d3 3b 5f 1e 37 ba 67 e7 38 3b 00 c6 0c 3c
       0.006459406 -0.00069854216 0.0028214098 0.008592129
000250 5b dc ee bb cf f6 d0 ba 72 db 05 bb 3c b0 7c 3a
       -0.007289452 -0.0015942695 -0.002042499 0.0009639298
000260 f2 a0 6a 3c 9c 35 5b 3b 62 54 94 3c 4e 61 9d 39
       0.014320599 0.0033448702 0.018106643 0.0003001787
000270 fa 08 7e 3b 41 85 7c bb 8c a2 63 bb 24 82 86 3c
       0.0038762675 -0.0038531574 -0.0034734337 0.016419478
000280 fe 65 cc 3b 71 7b e2 3a 4e 14 45 3c 3b 18 05 3c
       0.0062377444 0.001727922 0.012028767 0.008123453
000290 20 48 a8 3b 29 83 af 3b 91 da 9d 3b 74 24 78 3b
       0.005135551 0.0053562117 0.004817315 0.0037863525
0002a0 88 c8 16 bc 33 15 3a 3c 1c 8a 44 3b 08 67 66 3c
       -0.009203084 0.011357593 0.0029989546 0.0140626505
0002b0 fd f1 41 3c 52 86 54 bb 65 4d 2a 3c d1 43 5d ba
       0.01183748 -0.0032428694 0.010394429 -0.00084405864
0002c0 c1 e6 df 3b 4d 82 16 3c c0 e9 ea 3b d1 42 33 3c
       0.006832928 0.00918634 0.0071689785 0.010941223
0002d0 b7 ba 0f 3c 2e c9 c0 3b 45 01 03 3b 3e 02 5b 3c
       0.008772544 0.0058833575 0.001998977 0.013367234
0002e0 f3 c6 7b 3b 4d d9 0f 3c b6 25 9e bb 02 3d f6 ba
       0.0038418144 0.008779836 -0.004826273 -0.0018786492
0002f0 eb 71 ce 3b da b0 15 3c df 04 d5 3b f9 e1 51 bb
       0.006300201 0.009136403 0.006500825 -0.003202556
000300 da dd 0d 3c ab 1d ee 3b cd 98 20 ba dd 77 2e 3c
       0.008658851 0.0072667203 -0.0006126285 0.010648695
000310 34 9f 84 3b 9a ea 47 3c cc 3e 5c 3c 94 f2 89 3b
       0.004047299 0.012201929 0.013442706 0.004209826
000320 e1 de 77 3c 9c 7b bc 3a f3 54 03 3c 59 c3 9d 3b
       0.015128822 0.00143801 0.008015859 0.004814547
000330 a6 60 01 3c 5d cf 88 3c e1 97 32 3c 9e 19 95 3b
       0.007896578 0.016700441 0.010900469 0.004550173
000340 e9 25 12 bb 73 9f 64 3c 6b 4b 4d 3b c4 1e 2e 3c
       -0.0022300428 0.013954031 0.003132547 0.010627452
000350 11 1c c5 ba df 84 33 3c 2a 18 4d 3b 8e 64 cc 3b
       -0.0015038272 0.010956972 0.003129492 0.006237573
000360 34 c3 4f 3b 9d f5 8e 3a f2 1f 93 bb 69 db 62 bb
       0.0031702043 0.0010906939 -0.004489892 -0.0034615642
000370 8d 4d c4 38 7c 9e 82 3c de d5 bd bb ca 65 08 bb
       9.360453e-05 0.015944712 -0.005793317 -0.0020812624
000380 30 bd 42 ba 39 f3 b9 bb ac 47 df 3a f8 1e 5a 3a
       -0.0007428704 -0.0056747464 0.001703491 0.0008320655
000390 bb 46 de bb 40 97 a7 3b b4 7a fb 3a 44 cf 39 bb
       -0.006783334 0.005114466 0.0019186349 -0.00283523
0003a0 57 62 a8 3b 97 7f ca 3b ea 43 0f 3c d0 09 86 3b
       0.005138676 0.0061797607 0.008744219 0.004090525
0003b0 21 cf 31 3c c6 af c5 3b 48 bd d7 3b ec 34 d6 3b
       0.010852606 0.0060329167 0.0065838434 0.0065370705
0003c0 ae ae 64 3a f1 06 bc 3b 76 d5 b5 ba 0a 83 f2 ba
       0.0008723539 0.005738132 -0.001387282 -0.0018502187
0003d0 52 3f 1c 3b 16 ce 24 3b 7d 70 0b 3b 38 de 51 3c
       0.0023841453 0.002514725 0.0021276765 0.012809329
0003e0 2f 91 64 3c 7b 3d 4e 3c 4f fd 13 bb 20 bd 6b 3b
       0.01395063 0.0125879 -0.0022581404 0.0035970882
0003f0 29 57 b3 3b 0d e6 69 3b 4b b8 9f bb fc b1 b7 3c
       0.005473037 0.00356901 -0.0048742644 0.022423737

sequential/dense_3/BiasAdd/ReadVariableOp f4 [480]
000000 46 ca dc 3b 00 ee 17 38 c4 6c 9c ba a3 9f 4c 3c
       0.00673798 3.622286e-05 -0.001193427 0.012489232
000010 2c c9 c3 3b ee d8 97 3c e9 08 50 bb 77 74 dd 3b
       0.0059749093 0.018536057 -0.0031743592 0.0067582685
000020 fd e1 4d 3b 9d 68 23 bb e4 ab 04 3b d6 02 01 3b
       0.0031415217 -0.002493418 0.0020244056 0.0019685528
000030 da b1 5d 3c e9 2e bd 3b 76 10 81 3c 82 f5 b4 bb
       0.013531173 0.0057734144 0.01575492 -0.005522431
000040 b8 07 0d bc 9c 90 6e 3b 6d c1 9d 3c 16 e6 47 3b
       -0.008607797 0.0036402112 0.019257272 0.0030502132
000050 0b fa 50 3c 53 57 2e 3c 3e 8e 1a bb 15 5b 28 bb
       0.012754927 0.010640937 -0.0023583318 -0.0025689055
000060 fa 2d ad ba 42 6c 9c 3b c3 d9 df 39 ff d5 0d 3a
       -0.0013212555 0.0047736475 0.0004269612 0.0005410611
000070 bf 4a aa 3c ec 71 75 3c c7 c1 29 3c 5a 3b 21 3b
       0.020787595 0.014980774 0.0103611415 0.0024602027
000080 05 32 80 3c af 3d 3d 3c d8 ca 37 3c 0d 17 a4 3b
       0.015648851 0.011550351 0.011217795 0.0050076307
000090 82 b9 39 ba b6 c5 19 bb d2 f6 af 38 25 0e fa 3b
       -0.0007084833 -0.0023463792 8.390624e-05 0.0076310807
0000a0 81 1a 82 3b e0 9b 58 ba e8 e5 71 bb 2d 2d b5 bb
       0.0039704447 -0.0008262973 -0.0036910716 -0.005529067
0000b0 97 d5 86 3c 27 31 8e ba ff d0 1f 3c 9a 87 0d bb
       0.01645927 -0.0010848389 0.009754418 -0.0021595717
0000c0 b8 7b 0a 3c 90 bb 19 bb 6b 4d 2a 3c 5b 52 a0 3c
       0.008452348 -0.0023457743 0.010394434 0.01957052
0000d0 7a e8 cf 3c 40 52 df 3b 0b b0 fd 3b 10 37 34 3c
       0.025379408 0.006815225 0.007741933 0.010999456
0000e0 d7 1f a3 ba c5 06 49 3c 0c 16 dd 3b c5 6c 37 3c
       -0.0012445402 0.01226968 0.006747013 0.011195366
0000f0 43 5d 36 3c 1e 54 d2 3b 6a e5 26 3c 4e 9a 24 bb
       0.011130634 0.006418719 0.0101865325 -0.0025116387
000100 b2 b1 73 ba 91 59 27 bb c9 a7 82 3c 7a 18 62 3c
       -0.0009296193 -0.0025535563 0.015949147 0.013799781
000110 0c e4 9c 3b a5 05 8c bb 67 35 5d 39 ca 8e aa 3b
       0.0047879275 -0.004273134 0.00021096096 0.00520501
000120 aa 92 7e 3c 28 d3 46 3c 3c 48 00 ba e3 97 ad 3b
       0.015537897 0.0121353045 -0.0004893576 0.0052976473
000130 fa 3c 93 bb df 10 79 3c f0 c1 13 3c 2d 89 03 bc
       -0.004493353 0.015201776 0.009018406 -0.008028311
000140 1d 08 67 3c ac 0e 2c 3c 01 ac a3 3c 80 6d f4 3b
       0.014101055 0.010501545 0.019979479 0.0074593425
000150 57 69 a8 3b 4d 90 96 bb 31 49 95 3a 9c 59 50 3c
       0.0051395106 -0.0045948387 0.0011389611 0.012716677
000160 79 68 2f bb c8 16 2a 3c f7 45 bd 3a 82 8f 15 3c
       -0.0026765151 0.010381408 0.0014440407 0.009128453
000170 46 4d 54 3c 84 8a ab 3b 47 54 a5 b9 41 f9 2c 3c
       0.012957877 0.005235018 -0.00031534044 0.010557474
000180 6e f3 ac 3b 89 29 1d 3b d5 80 3a bb 15 a0 72 3c
       0.0052780425 0.0023981056 -0.0028458138 0.014808674
000190 7f 10 72 3c 0a 57 e5 b9 07 b0 71 b9 c1 51 b9 3b
       0.014774441 -0.00043743133 -0.00023049126 0.005655498
0001a0 14 0b d4 ba c2 91 d6 3b b5 2a 09 3b 35 08 2e 3a
       -0.0016177618 0.0065481374 0.0020929996 0.0006638796
0001b0 bf de a4 3b 07 e0 da 3b de c6 a0 bb d1 11 da 3b
       0.005031436 0.006679538 -0.0049065193 0.006654956
0001c0 65 1d 14 bc fa 17 50 3c eb af 3e 3a 41 fb 46 3c
       -0.009040211 0.012701029 0.00072741386 0.012144865
0001d0 9a be 94 3c dd ce ee bb c5 8f 32 bb 16 24 bd 3b
       0.018157292 -0.0072878436 -0.0027246338 0.005772124
0001e0 4e 5e a7 bb 3d 37 b4 bb c9 ac 4e 3c 95 9f f7 3b
       -0.0051076775 -0.005499749 0.012614437 0.0075568655
0001f0 5c 08 7f 3c f9 b0 32 3c 8f c8 f8 3a 71 db 97 bb
       0.015565958 0.010906451 0.001898067 -0.0046343138
000200 ba 5e ba ba 79 5e 4c 3c 88 ab b9 ba ec b0 b4 3b
       -0.0014218905 0.012473696 -0.00141655 0.005514255
000210 34 64 09 3c cc b4 9a ba 37 9d 1d 3b 06 b7 0a bc
       0.008385707 -0.0011803149 0.0024050006 -0.008466488
000220 e6 1e 39 3c 42 3e a2 3b 6b 79 61 bb bd 23 28 3b
       0.011298871 0.0049512694 -0.0034404646 0.0025656067
000230 8f 92 45 bc 2d 01 91 3b 87 d8 18 bc b4 a1 23 3c
       -0.012058868 0.004425189 -0.009328968 0.0099872835
000240 aa e2 b1 3c c9 22 aa 3b cb fb e2 ba a5 43 82 3c
       0.021714527 0.005192135 -0.0017317472 0.015901396
000250 50 c0 a7 3b a0 18 1d 3c 2d 30 42 bb 00 a2 fa ba
       0.005119361 0.009588391 -0.0029630766 -0.0019121766
000260 88 ac 0a 3c 25 28 5a 3c 5a 09 2a 3c c3 3a 83 3b
       0.008463986 0.013315235 0.010378206 0.0040048077
000270 cc 30 e4 3b 50 85 3a 3c fc 87 f5 3b 3c bb d0 3a
       0.006963825 0.011384323 0.0074930172 0.0015924941
000280 47 2e f2 3b 9c 3d 51 bb 95 06 c7 3b 0c 5f 83 bb
       0.0073907706 -0.0031927591 0.0060737827 -0.004009133
000290 39 b7 b5 3a d2 97 d9 3b 33 f2 cc 3c 12 cc c1 3b
       0.0013863809 0.006640413 0.025017833 0.0059142197
0002a0 0b e0 a8 3c 6e 37 d4 3b ab a2 54 3a 4c 86 8d b9
       0.020614645 0.0064763343 0.00081113976 -0.00026993675
0002b0 21 19 db 3b b5 ce 04 3c 56 44 fa 3b 9c b5 59 ba
       0.006686345 0.008105923 0.007637541 -0.0008304955
0002c0 14 5b d1 3b 77 ef c8 3b 4c e8 11 3c a6 f6 bb ba
       0.006389031 0.006132062 0.008905482 -0.0014340475
0002d0 20 05 2c ba 47 7d 8b 3a 4f 1e b1 3b 51 85 b2 3b
       -0.0006562043 0.0010642194 0.0054052244 0.0054480215
0002e0 94 fd e7 bb 87 d1 03 3c 5b 68 d3 3b f3 45 63 3c
       -0.0070797894 0.008045561 0.006451649 0.013871658
0002f0 fc 38 24 3b 46 fc 99 3c 81 25 bc 3a 06 78 35 3b
       0.002505838 0.018797051 0.0014354439 0.0027689948
000300 9d 65 e1 3b 46 66 55 3c c8 b8 b1 3b ab 8c c1 3b
       0.0068785683 0.013024872 0.005423639 0.0059066615
000310 e7 26 2a 3c 83 50 3e bb 17 98 39 3b a9 5b 1e 3b
       0.010385252 -0.0029039688 0.0028319412 0.002416352
000320 65 dc d0 3a 38 be ab 3b ec 56 46 3c ea 73 54 39
       0.0015934823 0.0052411817 0.012105685 0.00020261077
000330 e3 39 4a 3c af 44 60 3c e8 95 f0 3b b6 fa 1f 3b
       0.012342903 0.01368825 0.007342089 0.002441091
000340 74 2c 8b 3b 78 32 74 3c 38 1c 93 3c 86 fc da 3b
       0.0042472426 0.014904611 0.017957792 0.006682935
000350 58 ac 1b 3c 7a c4 2b 3c 09 2f 50 bb c4 c7 20 3c
       0.009501539 0.010483855 -0.0031766316 0.009813253
000360 cc e2 80 3b 53 b8 c0 b9 c1 1e a7 3b 96 41 e6 3a
       0.0039332863 -0.00036758426 0.0051001017 0.0017567154
000370 ed d7 0d 3c 73 bb 22 3a 2b 6e 3b bb 82 9f 3a 3c
       0.008657438 0.00062077417 -0.00285996 0.011390569
000380 a4 d5 2d 3c 33 5a 43 3c 05 a2 71 ba 82 6a 11 3c
       0.010610018 0.011923361 -0.0009217563 0.008875491
000390 d6 bf 84 3c 40 a9 5a 3c 5d f0 57 bb a7 ee 83 bb
       0.016204756 0.013346016 -0.0032949664 -0.0040262523
0003a0 d7 b8 10 bc 31 e8 6a 3c 30 ed d3 3b 45 27 04 bb
       -0.008833132 0.014337585 0.006467484 -0.0020165008
0003b0 b1 3e aa 3c ff 26 6c 39 2b 32 82 ba 26 98 22 3c
       0.020781847 0.00022521241 -0.0009933164 0.00992397
0003c0 59 78 5f bb c8 11 0e bb 97 8b 18 3b 9b 24 9f 3c
       -0.0034098832 -0.002167808 0.0023276561 0.019426635
0003d0 76 b8 dd 3b 94 ff 2b 3c 2f 37 eb 3b 34 59 d5 3a
       0.006766374 0.010497946 0.0071782093 0.0016277195
0003e0 76 7d df ba 36 55 5c 3c f0 62 2b 3c e2 c1 1e 3b
       -0.001705094 0.01344805 0.0104606 0.002422445
0003f0 20 7f ac 38 c5 75 5c 3c 12 38 e1 3b db f9 80 3b
       8.225278e-05 0.013455813 0.006873139 0.003936035

sequential/dense_4/BiasAdd/ReadVariableOp f4 [3]
000000 5e 9d df 3b 3d eb 21 bc 44 8c 93 b9
       0.0068241796 -0.009882745 -0.0002814253

sequential/dense/BiasAdd/ReadVariableOp f4 [68]
000000 bf 30 4b 3c 8e c9 43 bc 77 f2 8f ba de 65 cc bb
       0.012401759 -0.01194991 -0.0010982294 -0.0062377295
000010 7c a1 65 bc 96 4e c1 ba a1 8d a1 3a 5e ab db 3b
       -0.014015552 -0.0014748152 0.0012325534 0.006703778
000020 78 e0 a3 3c 40 a7 3b bb 29 ff cc 3c 10 c2 38 3c
       0.020004496 -0.0028633624 0.025024014 0.011276737
000030 ea 24 f1 3b f9 d2 00 3c b5 bb c1 3c 02 dc 01 3b
       0.007359137 0.0078628 0.023649076 0.0019814973
000040 a9 ac c6 3b 4b 21 4a 3c 95 00 7d 3c 9c 0d f6 3c
       0.006063063 0.012337039 0.015442033 0.030035786
000050 29 e3 15 bc 70 79 3e 3c 5a 50 95 3c 0e 6a df bb
       -0.0091483975 0.011625633 0.018226791 -0.0068180626
000060 a9 71 5d 3c 56 a5 6a 3c 3f 2a d3 bb 41 d5 ac b9
       0.013515868 0.014321646 -0.006444245 -0.00032965283
000070 2d a9 14 3c 42 7b a9 bb 43 69 b6 3c 1f 33 90 3b
       0.009073538 -0.005172164 0.02226699 0.0044006254
000080 27 6f f4 3c c4 e3 fe bb 35 ed be ba d2 74 4c 3b
       0.029838158 -0.0077786166 -0.0014566543 0.003119756
000090 df cf 81 bb 33 15 6d 3c 9a 82 b7 3b 51 3f 72 3c
       -0.0039615477 0.014470386 0.0056002857 0.014785604
0000a0 30 bb b5 3c 0f d9 a7 3b 8d e0 3f 39 bb ec 63 3c
       0.022183985 0.005122311 0.00018298831 0.013911421
0000b0 68 ad 42 3c 46 24 9b 3b de a6 31 bc bd 13 55 3a
       0.011882164 0.0047345487 -0.010843007 0.00081282464
0000c0 93 80 00 3d a5 f3 8b bb f2 b7 db 3c 1f 88 97 3b
       0.031372618 -0.004270988 0.02682111 0.004624381
0000d0 3f d0 5e bc d0 dd 14 3c b5 fa d5 3a 67 54 b6 3c
       -0.013599454 0.009086087 0.0016325327 0.022257043
0000e0 46 2c 31 3d 5a ad d9 3c 5b 51 75 39 d6 cb 98 bc
       0.043255113 0.026571918 0.00023395328 -0.018651884
0000f0 20 04 f9 3b c1 0f 6b bb 26 82 dd 3b f7 55 7a 3c
       0.0075993687 -0.0035867544 0.0067598997 0.015279285
000100 31 9b c5 ba f1 9d 05 bc 79 1b 5c bc 1f d0 56 3c
       -0.0015076158 -0.008155332 -0.013434284 0.013111143

sequential/dense/MatMul i1 [68, 68] scale=0.002100053 zero_point=0
000000 a1 61 51 e5 3f dc c1 c0 a8 3a a9 1e 30 ba 47 b1
       -0.19950503 0.20370515 0.1701043 -0.056701433 0.13230334 -0.075601906 -0.13230334 -0.1344034 -0.18480466 0.121803075 -0.18270461 0.06300159 0.10080254 -0.14700371 0.14910376 -0.1659042
000010 e9 1b 30 42 5d 47 e3 49 ea 42 ab ce 3d d7 d1 60
       -0.04830122 0.056701433 0.10080254 0.1386035 0.19530493 0.14910376 -0.060901538 0.15330388 -0.046201166 0.1386035 -0.17850451 -0.10500265 0.12810323 -0.08610217 -0.09870249 0.20160508
000020 f4 22 2b 3d d4 97 ce bc a8 b1 0d 61 01 39 bb db
       -0.025200635 0.071401805 0.09030228 0.12810323 -0.09240233 -0.22050557 -0.10500265 -0.14280361 -0.18480466 -0.1659042 0.02730069 0.20370515 0.002100053 0.119703025 -0.14490366 -0.07770196
000030 57 aa 4c f1 fb bd ed 27 18 2f 43 11 0f ca 5e e0
       0.18270461 -0.18060456 0.15960403 -0.031500794 -0.010500265 -0.14070356 -0.039901007 0.081902064 0.05040127 0.09870249 0.14070356 0.035700902 0.031500794 -0.113402866 0.19740498 -0.0672017
000040 fd 2a 33 1c bf 42 2b c0 e4 f3 60 b9 3c da 1f 63
       -0.006300159 0.08820222 0.10710271 0.058801483 -0.13650344 0.1386035 0.09030228 -0.1344034 -0.058801483 -0.02730069 0.20160508 -0.14910376 0.12600318 -0.079802014 0.065101646 0.20790525
000050 ec dd 37 af c4 05 18 d2 d9 50 9d 52 0d f9 33 20
       -0.04200106 -0.073501855 0.11550292 -0.1701043 -0.12600318 0.010500265 0.05040127 -0.09660244 -0.081902064 0.16800424 -0.20790525 0.17220435 0.02730069 -0.014700371 0.10710271 0.0672017
000060 2f 18 fd 04 ee fc 11 fe ad 3f f5 04 04 60 d5 b8
       0.09870249 0.05040127 -0.006300159 0.008400212 -0.037800953 -0.008400212 0.035700902 -0.004200106 -0.1743044 0.13230334 -0.023100583 0.008400212 0.008400212 0.20160508 -0.09030228 -0.15120381
000070 d9 f9 59 be a0 54 c1 d7 ac 55 c2 36 50 07 d1 67
       -0.081902064 -0.014700371 0.18690471 -0.1386035 -0.20160508 0.17640445 -0.13230334 -0.08610217 -0.17640445 0.17850451 -0.13020329 0.113402866 0.16800424 0.014700371 -0.09870249 0.21630546
000080 32 da 67 a0 62 fe 45 54 ce 56 09 0d 24 10 d3 22
       0.10500265 -0.079802014 0.21630546 -0.20160508 0.2058052 -0.004200106 0.14490366 0.17640445 -0.10500265 0.18060456 0.018900476 0.02730069 0.075601906 0.03360085 -0.09450238 0.071401805
000090 b8 9a b8 41 a4 ee df 57 17 ea 41 4c f5 d4 17 cc
       -0.15120381 -0.21420541 -0.15120381 0.13650344 -0.19320488 -0.037800953 -0.06930175 0.18270461 0.04830122 -0.046201166 0.13650344 0.15960403 -0.023100583 -0.09240233 0.04830122 -0.10920276
0000a0 16 1b d2 b9 b6 9c a7 55 c7 2d 15 ac 22 de 41 e0
       0.046201166 0.056701433 -0.09660244 -0.14910376 -0.15540393 -0.2100053 -0.18690471 0.17850451 -0.119703025 0.09450238 0.04410111 -0.17640445 0.071401805 -0.071401805 0.13650344 -0.0672017
0000b0 c0 09 55 e8 64 1a 1e d7 02 a9 e0 50 28 27 f4 cb
       -0.1344034 0.018900476 0.17850451 -0.05040127 0.2100053 0.05460138 0.06300159 -0.08610217 0.004200106 -0.18270461 -0.0672017 0.16800424 0.08400212 0.081902064 -0.025200635 -0.11130281
0000c0 53 bc 1b e6 fc ec a4 f9 5a 30 5d 0f a2 51 66 b2
       0.1743044 -0.14280361 0.056701433 -0.05460138 -0.008400212 -0.04200106 -0.19320488 -0.014700371 0.18900476 0.10080254 0.19530493 0.031500794 -0.19740498 0.1701043 0.21420541 -0.16380413
0000d0 51 60 c9 ad 54 e2 0a 58 be 15 e8 ef b3 37 48 20
       0.1701043 0.20160508 -0.11550292 -0.1743044 0.17640445 -0.06300159 0.02100053 0.18480466 -0.1386035 0.04410111 -0.05040127 -0.035700902 -0.16170408 0.11550292 0.15120381 0.0672017
0000e0 a0 03 5d c8 28 af 32 52 df 21 56 bc e1 21 33 10
       -0.20160508 0.006300159 0.19530493 -0.11760297 0.08400212 -0.1701043 0.10500265 0.17220435 -0.06930175 0.06930175 0.18060456 -0.14280361 -0.065101646 0.06930175 0.10710271 0.03360085
0000f0 b6 20 ed d8 ea 2f 3a 67 18 4b 19 26 a8 cb dc 3b
       -0.15540393 0.0672017 -0.039901007 -0.08400212 -0.046201166 0.09870249 0.121803075 0.21630546 0.05040127 0.15750398 0.052501325 0.079802014 -0.18480466 -0.11130281 -0.075601906 0.123903126

sequential/dense_1/MatMul i1 [480, 68] scale=0.001138783 zero_point=0
000000 e3 f7 c2 fc b8 43 bf 38 2c 51 f3 be 43 69 4b 5f
       -0.033024706 -0.010249047 -0.07060454 -0.004555132 -0.08199237 0.07629846 -0.07402089 0.063771844 0.05010645 0.09224142 -0.014804178 -0.07515968 0.07629846 0.11957221 0.08540872 0.10818438
000010 0d 1e ee 09 e4 03 f0 9d b5 16 dd 1e c4 13 f1 4b
       0.014804178 0.03416349 -0.020498093 0.010249047 -0.031885922 0.0034163487 -0.018220527 -0.11273951 -0.08540872 0.025053225 -0.039857402 0.03416349 -0.06832698 0.021636875 -0.017081745 0.08540872
000020 1f 26 11 f3 51 29 37 d4 40 34 fd c7 e6 cd a8 1b
       0.03530227 0.04327375 0.01935931 -0.014804178 0.09224142 0.0466901 0.06263306 -0.05010645 0.07288211 0.05921671 -0.0034163487 -0.06491063 -0.029608356 -0.05807793 -0.1002129 0.03074714
000030 0b cb f6 36 c1 d6 cf 47 40 1a d8 22 fd c5 f0 1f
       0.012526613 -0.060355496 -0.01138783 0.06149428 -0.071743324 -0.047828883 -0.055800363 0.08085359 0.07288211 0.029608356 -0.04555132 0.03871862 -0.0034163487 -0.067188196 -0.018220527 0.03530227
000040 f3 31 3e f3 db 00 c2 e3 c1 c6 0d 51 f8 be cb fa
       -0.014804178 0.055800363 0.07060454 -0.014804178 -0.04213497 0.0 -0.07060454 -0.033024706 -0.071743324 -0.06604941 0.014804178 0.09224142 -0.009110264 -0.07515968 -0.060355496 -0.0068326974
000050 23 00 1b b3 02 07 f4 bd 08 df 15 9e 1b db bf 30
       0.039857402 0.0 0.03074714 -0.087686285 0.002277566 0.0079714805 -0.013665395 -0.07629846 0.009110264 -0.03757984 0.023914441 -0.11160073 0.03074714 -0.04213497 -0.07402089 0.05466158
000060 bf 9f dd 53 06 f3 29 d7 da 43 3f f4 37 d8 34 14
       -0.07402089 -0.11046194 -0.039857402 0.09451898 0.0068326974 -0.014804178 0.0466901 -0.0466901 -0.04327375 0.07629846 0.071743324 -0.013665395 0.06263306 -0.04555132 0.05921671 0.02277566
000070 1d 54 c5 35 27 04 15 56 d8 fe 2a b8 fe 1d c3 9f
       0.033024706 0.095657766 -0.067188196 0.060355496 0.044412535 0.004555132 0.023914441 0.097935334 -0.04555132 -0.002277566 0.047828883 -0.08199237 -0.002277566 0.033024706 -0.06946576 -0.11046194
000080 11 52 2b dc 4e 03 4d b3 4e db cf fa a6 a5 00 fb
       0.01935931 0.0933802 0.048967667 -0.040996186 0.08882507 0.0034163487 0.087686285 -0.087686285 0.08882507 -0.04213497 -0.055800363 -0.0068326974 -0.10249046 -0.10362925 0.0 -0.005693915
000090 db 45 17 2e 08 d6 9a db 0b f0 b1 1a 0f 4f 32 58
       -0.04213497 0.07857602 0.026192008 0.052384015 0.009110264 -0.047828883 -0.11615586 -0.04213497 0.012526613 -0.018220527 -0.08996385 0.029608356 0.017081745 0.08996385 0.056939147 0.1002129
0000a0 3d 0c 13 f9 cc 15 04 c5 ed 34 bc e0 27 15 bc 69
       0.06946576 0.013665395 0.021636875 -0.0079714805 -0.05921671 0.023914441 0.004555132 -0.067188196 -0.021636875 0.05921671 -0.07743724 -0.036441054 0.044412535 0.023914441 -0.07743724 0.11957221
0000b0 c9 f8 23 b0 29 f9 41 2c 58 fc 39 af e4 b4 bc b2
       -0.06263306 -0.009110264 0.039857402 -0.09110264 0.0466901 -0.0079714805 0.07402089 0.05010645 0.1002129 -0.004555132 0.06491063 -0.09224142 -0.031885922 -0.0865475 -0.07743724 -0.08882507
0000c0 f1 fd 42 16 2e ca 01 f8 da ad 0c 21 ee ef c5 4e
       -0.017081745 -0.0034163487 0.07515968 0.025053225 0.052384015 -0.06149428 0.001138783 -0.009110264 -0.04327375 -0.09451898 0.013665395 0.03757984 -0.020498093 -0.01935931 -0.067188196 0.08882507
0000d0 1a 3a 22 9c c4 14 64 cd 4b 25 9c 35 0b bf c4 31
       0.029608356 0.06604941 0.03871862 -0.113878295 -0.06832698 0.02277566 0.113878295 -0.05807793 0.08540872 0.04213497 -0.113878295 0.060355496 0.012526613 -0.07402089 -0.06832698 0.055800363
0000e0 bd 4a bf ed ff c1 42 ed da bd 44 21 ff 14 1a d5
       -0.07629846 0.08426994 -0.07402089 -0.021636875 -0.001138783 -0.071743324 0.07515968 -0.021636875 -0.04327375 -0.07629846 0.07743724 0.03757984 -0.001138783 0.02277566 0.029608356 -0.048967667
0000f0 fc fc 3c 29 f1 ea f9 32 23 ac 52 34 30 4b dd ea
       -0.004555132 -0.004555132 0.06832698 0.0466901 -0.017081745 -0.025053225 -0.0079714805 0.056939147 0.039857402 -0.095657766 0.0933802 0.05921671 0.05466158 0.08540872 -0.039857402 -0.025053225

sequential/dense_2/MatMul i1 [256, 480] scale=0.0011269794 zero_point=0
000000 b9 2f 59 ff 2b d6 18 c6 57 d3 41 ee d5 32 0b a9
       -0.08001553 0.05296803 0.10030116 -0.0011269794 0.04846011 -0.047333132 0.027047504 -0.0653648 0.098047204 -0.05071407 0.07325366 -0.020285629 -0.04846011 0.05634897 0.012396773 -0.098047204
000010 d4 ee 3c b9 e2 45 1c d0 0e d0 b0 04 02 30 e8 2d
       -0.049587093 -0.020285629 0.067618765 -0.08001553 -0.033809382 0.077761576 0.03155542 -0.054095007 0.01577771 -0.054095007 -0.09015835 0.0045079174 0.0022539587 0.054095007 -0.027047504 0.05071407
000020 f7 32 05 fd 1c 38 b6 c3 33 34 de f4 59 b3 00 f0
       -0.010142814 0.05634897 0.005634897 -0.003380938 0.03155542 0.06311084 -0.08339647 -0.06874574 0.057475947 0.058602925 -0.038317297 -0.013523752 0.10030116 -0.08677741 0.0 -0.01803167
000030 e0 4d 44 22 e7 0f e5 32 1c 1e 38 11 fa 50 c8 20
       -0.03606334 0.08677741 0.07663459 0.038317297 -0.028174484 0.016904691 -0.030428443 0.05634897 0.03155542 0.033809382 0.06311084 0.019158648 -0.006761876 0.09015835 -0.06311084 0.03606334
000040 af 2c f7 d3 2b 08 b9 e0 19 de 34 2e 0e 20 b9 2e
       -0.091285326 0.049587093 -0.010142814 -0.05071407 0.04846011 0.009015835 -0.08001553 -0.03606334 0.028174484 -0.038317297 0.058602925 0.05184105 0.01577771 0.03606334 -0.08001553 0.05184105
000050 cd e2 bf 0b 22 c6 45 e1 be cb f8 ff 04 c0 56 32
       -0.057475947 -0.033809382 -0.07325366 0.012396773 0.038317297 -0.0653648 0.077761576 -0.03493636 -0.074380636 -0.059729908 -0.009015835 -0.0011269794 0.0045079174 -0.07212668 0.09692022 0.05634897
000060 e8 f3 dc f6 25 25 32 24 dd f7 17 ef bb 3b 47 c5
       -0.027047504 -0.014650731 -0.040571257 -0.011269794 0.041698236 0.041698236 0.05634897 0.040571257 -0.03944428 -0.010142814 0.025920525 -0.019158648 -0.077761576 0.06649178 0.08001553 -0.06649178
000070 cd 0f da b2 46 0b b5 cf 32 ba 22 cc ba 22 fe 3e
       -0.057475947 0.016904691 -0.042825215 -0.08790439 0.07888856 0.012396773 -0.084523454 -0.05522199 0.05634897 -0.07888856 0.038317297 -0.058602925 -0.07888856 0.038317297 -0.0022539587 0.06987272
000080 bb bd 41 2e f7 bd 16 38 b6 42 11 f1 46 ec bc df
       -0.077761576 -0.07550762 0.07325366 0.05184105 -0.010142814 -0.07550762 0.024793547 0.06311084 -0.08339647 0.074380636 0.019158648 -0.016904691 0.07888856 -0.022539588 -0.07663459 -0.037190318
000090 00 1c f2 b8 2b db cb f9 ff fc f7 fa ed 06 d7 cd
       0.0 0.03155542 -0.01577771 -0.081142515 0.04846011 -0.041698236 -0.059729908 -0.007888855 -0.0011269794 -0.0045079174 -0.010142814 -0.006761876 -0.021412607 0.006761876 -0.046206154 -0.057475947
0000a0 d4 36 e5 08 22 37 b1 11 d4 33 2e 0d 38 e4 fe 33
       -0.049587093 0.060856886 -0.030428443 0.009015835 0.038317297 0.061983865 -0.08903137 0.019158648 -0.049587093 0.057475947 0.05184105 0.014650731 0.06311084 -0.03155542 -0.0022539587 0.057475947
0000b0 d3 48 f5 c0 0d e9 48 c7 07 d9 e9 f4 e6 04 3b ce
       -0.05071407 0.081142515 -0.012396773 -0.07212668 0.014650731 -0.025920525 0.081142515 -0.064237826 0.007888855 -0.043952197 -0.025920525 -0.013523752 -0.029301463 0.0045079174 0.06649178 -0.05634897
0000c0 11 e0 bb 08 03 12 de 10 37 32 d9 51 e5 2c 35 3b
       0.019158648 -0.03606334 -0.077761576 0.009015835 0.003380938 0.020285629 -0.038317297 0.01803167 0.061983865 0.05634897 -0.043952197 0.091285326 -0.030428443 0.049587093 0.059729908 0.06649178
0000d0 c9 20 21 c8 d3 9a 19 b5 49 07 30 c3 f3 df 0e dc
       -0.061983865 0.03606334 0.037190318 -0.06311084 -0.05071407 -0.11495189 0.028174484 -0.084523454 0.08226949 0.007888855 0.054095007 -0.06874574 -0.014650731 -0.037190318 0.01577771 -0.040571257
0000e0 cb 08 2c d3 01 1f dd 04 1f 56 25 06 3d e2 f8 0a
       -0.059729908 0.009015835 0.049587093 -0.05071407 0.0011269794 0.03493636 -0.03944428 0.0045079174 0.03493636 0.09692022 0.041698236 0.006761876 0.06874574 -0.033809382 -0.009015835 0.011269794
0000f0 c6 f8 dc 32 f4 ea 1e f7 b3 10 16 21 e4 01 03 d1
       -0.0653648 -0.009015835 -0.040571257 0.05634897 -0.013523752 -0.024793547 0.033809382 -0.010142814 -0.08677741 0.01803167 0.024793547 0.037190318 -0.03155542 0.0011269794 0.003380938 -0.05296803

sequential/dense_3/MatMul i1 [480, 256] scale=0.0010873493 zero_point=0
000000 2d 51 f0 c7 f2 53 c4 f4 e0 fc 1f 2f 4f 28 0e 51
       0.048930716 0.08807529 -0.017397588 -0.061978906 -0.015222889 0.090249985 -0.06524096 -0.013048191 -0.034795176 -0.004349397 0.033707827 0.051105414 0.08590059 0.04349397 0.015222889 0.08807529
000010 49 cb 2e c8 02 07 cd b9 32 dd 1f 4b 49 e6 f6 c2
       0.0793765 -0.05762951 0.050018065 -0.060891557 0.0021746985 0.0076114447 -0.055454813 -0.0772018 0.054367464 -0.038057223 0.033707827 0.081551194 0.0793765 -0.02827108 -0.010873493 -0.067415655
000020 43 19 3e 43 e7 c6 c4 c2 d0 21 cd c9 40 27 df f5
       0.0728524 0.027183732 0.067415655 0.0728524 -0.027183732 -0.06306626 -0.06524096 -0.067415655 -0.052192762 0.035882525 -0.055454813 -0.05980421 0.06959035 0.042406622 -0.035882525 -0.011960842
000030 34 0f f2 db 18 11 ef 23 bf 43 07 ff 26 e3 dd 4c
       0.05654216 0.01631024 -0.015222889 -0.04023192 0.026096381 0.018484937 -0.018484937 0.038057223 -0.070677705 0.0728524 0.0076114447 -0.0010873493 0.041319273 -0.03153313 -0.038057223 0.08263855
000040 f0 e2 bc e5 06 fc 08 27 e9 45 2a 4a 4f 4e de c5
       -0.017397588 -0.03262048 -0.07393975 -0.02935843 0.0065240953 -0.004349397 0.008698794 0.042406622 -0.025009032 0.0750271 0.04566867 0.08046384 0.08590059 0.084813245 -0.036969874 -0.064153604
000050 fb c8 f1 d3 2f c6 0b 00 da d4 b4 42 55 d3 24 fe
       -0.0054367464 -0.060891557 -0.01631024 -0.048930716 0.051105414 -0.06306626 0.011960842 0.0 -0.041319273 -0.047843367 -0.08263855 0.07176505 0.09242468 -0.048930716 0.039144572 -0.0021746985
000060 30 fb c8 f5 f9 29 cb d5 f4 f2 cb 41 4c f9 df 33
       0.052192762 -0.0054367464 -0.060891557 -0.011960842 -0.0076114447 0.04458132 -0.05762951 -0.046756018 -0.013048191 -0.015222889 -0.05762951 0.070677705 0.08263855 -0.0076114447 -0.035882525 0.055454813
000070 fa 3e 2f f4 03 30 e7 de c0 df 2f 2e f9 24 45 20
       -0.0065240953 0.067415655 0.051105414 -0.013048191 0.0032620477 0.052192762 -0.027183732 -0.036969874 -0.06959035 -0.035882525 0.051105414 0.050018065 -0.0076114447 0.039144572 0.0750271 0.034795176
000080 36 cb e2 e1 4e 0b 1e c4 ea 10 e7 37 39 e0 ac 23
       0.05871686 -0.05762951 -0.03262048 -0.033707827 0.084813245 0.011960842 0.03262048 -0.06524096 -0.023921683 0.017397588 -0.027183732 0.05980421 0.061978906 -0.034795176 -0.09133734 0.038057223
000090 12 15 c6 e3 f9 04 e3 28 30 21 13 1c 32 ee 49 b9
       0.019572286 0.022834335 -0.06306626 -0.03153313 -0.0076114447 0.004349397 -0.03153313 0.04349397 0.052192762 0.035882525 0.020659637 0.030445779 0.054367464 -0.019572286 0.0793765 -0.0772018
0000a0 21 fd a4 10 dd ea c4 40 e9 1c 35 ac e2 2f 1f 37
       0.035882525 -0.0032620477 -0.10003613 0.017397588 -0.038057223 -0.023921683 -0.06524096 0.06959035 -0.025009032 0.030445779 0.05762951 -0.09133734 -0.03262048 0.051105414 0.033707827 0.05980421
0000b0 36 c9 2d e0 d9 d5 40 d2 0d d8 c5 d2 2b 04 40 0a
       0.05871686 -0.05980421 0.048930716 -0.034795176 -0.042406622 -0.046756018 0.06959035 -0.050018065 0.01413554 -0.04349397 -0.064153604 -0.050018065 0.046756018 0.004349397 0.06959035 0.010873493
0000c0 f2 d4 2a c7 f3 32 28 08 fd 26 15 e5 df d1 d5 0b
       -0.015222889 -0.047843367 0.04566867 -0.061978906 -0.01413554 0.054367464 0.04349397 0.008698794 -0.0032620477 0.041319273 0.022834335 -0.02935843 -0.035882525 -0.051105414 -0.046756018 0.011960842
0000d0 dd 49 fb b9 da 1e 1e 28 c5 ed 1b dd da fa 48 dd
       -0.038057223 0.0793765 -0.0054367464 -0.0772018 -0.041319273 0.03262048 0.03262048 0.04349397 -0.064153604 -0.020659637 0.02935843 -0.038057223 -0.041319273 -0.0065240953 0.078289144 -0.038057223
0000e0 22 43 ac d1 1d d4 35 49 c7 d5 4c 1d dc 44 d7 c3
       0.036969874 0.0728524 -0.09133734 -0.051105414 0.03153313 -0.047843367 0.05762951 0.0793765 -0.061978906 -0.046756018 0.08263855 0.03153313 -0.039144572 0.07393975 -0.04458132 -0.0663283
0000f0 11 cd 16 1b ea 00 1e 3e c0 1d ea 38 ce 3c c7 2a
       0.018484937 -0.055454813 0.023921683 0.02935843 -0.023921683 0.0 0.03262048 0.067415655 -0.06959035 0.03153313 -0.023921683 0.060891557 -0.054367464 0.06524096 -0.061978906 0.04566867

sequential/dense_4/MatMul i1 [3, 480] scale=0.0011265875 zero_point=0
000000 e5 99 cf 12 43 3c de fb b5 ac cb c2 03 1b 2f c4
       -0.030417863 -0.116038516 -0.05520279 0.020278575 0.07548136 0.06759525 -0.038303975 -0.0056329374 -0.08449406 -0.09463335 -0.05970914 -0.069848426 0.0033797626 0.030417863 0.05294961 -0.06759525
000010 c5 d3 ed 3e 25 42 ff 47 cd fc 45 f7 0b 4f 4d c6
       -0.06646866 -0.050696436 -0.021405162 0.069848426 0.041683737 0.074354775 -0.0011265875 0.07998771 -0.057455964 -0.00450635 0.07773454 -0.010139287 0.012392462 0.08900041 0.08674724 -0.065342076
000020 21 67 01 43 9c b1 57 b5 67 27 ef 13 6c 54 3f 43
       0.037177388 0.116038516 0.0011265875 0.07548136 -0.112658754 -0.08900041 0.09801311 -0.08449406 0.116038516 0.043936912 -0.019151988 0.021405162 0.12167145 0.09463335 0.07097501 0.07548136
000030 56 a7 6c 19 5d f2 0d 32 da 56 33 3b 39 bb 43 8e
       0.09688652 -0.100266285 0.12167145 0.028164688 0.104772635 -0.015772225 0.014645638 0.056329377 -0.042810325 0.09688652 0.057455964 0.06646866 0.06421549 -0.07773454 0.07548136 -0.12843098
000040 cb f9 02 37 be ac a9 e1 6b df 19 3c b7 36 5c a6
       -0.05970914 -0.007886113 0.002253175 0.061962314 -0.074354775 -0.09463335 -0.09801311 -0.034924213 0.120544866 -0.037177388 0.028164688 0.06759525 -0.08224089 0.060835727 0.10364605 -0.10139287
000050 53 f0 40 63 bc b4 e9 50 11 e8 2b 15 5f 95 bf 65
       0.09350676 -0.0180254 0.0721016 0.11153217 -0.07660795 -0.08562065 -0.025911512 0.090127 0.019151988 -0.027038101 0.04844326 0.023658337 0.10702581 -0.120544866 -0.07322819 0.11378534
000060 df c4 98 b9 04 3c c3 45 f1 05 a2 0e b4 24 d0 fe
       -0.037177388 -0.06759525 -0.1171651 -0.07998771 0.00450635 0.06759525 -0.06872184 0.07773454 -0.016898813 0.0056329374 -0.10589922 0.015772225 -0.08562065 0.04055715 -0.054076202 -0.002253175
000070 a7 f9 2f f5 ff e2 94 0b e2 df 37 22 56 00 9a 18
       -0.100266285 -0.007886113 0.05294961 -0.012392462 -0.0011265875 -0.033797625 -0.12167145 0.012392462 -0.033797625 -0.037177388 0.061962314 0.038303975 0.09688652 0.0 -0.11491193 0.027038101
000080 b7 48 e0 e1 1f ad fb 9e 26 39 cf 95 02 ef c1 34
       -0.08224089 0.0811143 -0.0360508 -0.034924213 0.034924213 -0.09350676 -0.0056329374 -0.11040558 0.042810325 0.06421549 -0.05520279 -0.120544866 0.002253175 -0.019151988 -0.07097501 0.05858255
000090 4b 48 d0 58 12 03 94 a1 44 46 f1 3c c8 1e ee f1
       0.08449406 0.0811143 -0.054076202 0.0991397 0.020278575 0.0033797626 -0.12167145 -0.10702581 0.07660795 0.078861125 -0.016898813 0.06759525 -0.0630889 0.033797625 -0.020278575 -0.016898813
0000a0 d2 5d 67 13 e5 e5 51 47 4f 21 d9 1b c6 14 f5 14
       -0.051823024 0.104772635 0.116038516 0.021405162 -0.030417863 -0.030417863 0.091253586 0.07998771 0.08900041 0.037177388 -0.043936912 0.030417863 -0.065342076 0.02253175 -0.012392462 0.02253175
0000b0 14 39 52 ef ba 1f fb c2 ae a2 b0 b1 c3 68 d2 cb
       0.02253175 0.06421549 0.09238017 -0.019151988 -0.078861125 0.034924213 -0.0056329374 -0.069848426 -0.09238017 -0.10589922 -0.090127 -0.08900041 -0.06872184 0.1171651 -0.051823024 -0.05970914
0000c0 ec 38 a5 df 42 18 35 f4 df e3 40 9f 25 52 b9 9e
       -0.02253175 0.0630889 -0.10251946 -0.037177388 0.074354775 0.027038101 0.05970914 -0.013519051 -0.037177388 -0.032671038 0.0721016 -0.10927899 0.041683737 0.09238017 -0.07998771 -0.11040558
0000d0 09 22 0d 6b f7 5c 36 fc 42 1a 95 de e1 da d0 21
       0.010139287 0.038303975 0.014645638 0.120544866 -0.010139287 0.10364605 0.060835727 -0.00450635 0.074354775 0.029291276 -0.120544866 -0.038303975 -0.034924213 -0.042810325 -0.054076202 0.037177388
0000e0 0d 38 c7 1f 68 12 d5 2b a3 43 b3 11 f6 f0 bf 3c
       0.014645638 0.0630889 -0.06421549 0.034924213 0.1171651 0.020278575 -0.04844326 0.04844326 -0.104772635 0.07548136 -0.08674724 0.019151988 -0.011265875 -0.0180254 -0.07322819 0.06759525
0000f0 c1 ae b5 33 5b c1 d8 56 b1 5f 70 25 bc 51 2f 5f
       -0.07097501 -0.09238017 -0.08449406 0.057455964 0.10251946 -0.07097501 -0.0450635 0.09688652 -0.08900041 0.10702581 0.1261778 0.041683737 -0.07660795 0.091253586 0.05294961 0.10702581
